ae_weights/n_13.pth (torch, 25217 bytes, 12 tensors)

encoder.0.weight f4 [8, 3, 2, 2]
0	0xbf07a0bb	-0.5297963
1	0xbedc4b1b	-0.4302605
2	0xbf14f2d0	-0.58183
3	0xbe9b865f	-0.30375955
4	0x3f94b263	1.1616939
5	0x3f1cf044	0.61304116
6	0x3f884fea	1.0649388
7	0x3ee48977	0.44636127
8	0xbefe656f	-0.49686763
9	0xbdcd8bbc	-0.10036418
10	0xbeda94fd	-0.42691794
11	0xbdb77519	-0.089578815
12	0x3f8d92bc	1.1060405
13	0x3efff45c	0.4999112
14	0x3f4a8eca	0.7912413
15	0x3dae317d	0.08505533
16	0xbf2a5383	-0.6653368
17	0xbe43848f	-0.19093536
18	0xbeb9b979	-0.36274317
19	0x3df236b6	0.118268415
20	0xbe9be645	-0.3044912
21	0xbed2e60b	-0.41191134
22	0xbe6e67cc	-0.23281783
23	0xbe43459d	-0.19069524
24	0xbda44bcd	-0.0802227
25	0xbef1169c	-0.47087562
26	0xbf23a5cd	-0.63924867
27	0xbf4db743	-0.8035776
28	0xbe9fbd1b	-0.31198964
29	0xbf353547	-0.7078442
30	0xbe153a1e	-0.14572951
31	0xbec80cbe	-0.39072222
32	0x3ef87c80	0.48532486
33	0x3f909b1f	1.1297339
34	0x3f42b990	0.76064396
35	0x3f9a0254	1.203196
36	0x3eefd0b1	0.46838906
37	0x3f2d2de3	0.6764814
38	0x3eb4c401	0.3530579
39	0x3f01c0fa	0.50685084
40	0xbf71f70c	-0.9451759
41	0xbf17090d	-0.58998185
42	0xbf6feffb	-0.93725556
43	0xbde47b7a	-0.11156364
44	0x3eaf9b34	0.34298098
45	0xbd96f717	-0.073713474
46	0x3f128815	0.57238895
47	0xbe707205	-0.23480995
48	0xbdbe03bf	-0.09278058
49	0x3f2a8fe2	0.666258
50	0xbb303d9b	-0.0026892188
51	0x3d465a0f	0.04842573
52	0xbcfffe18	-0.031249091
53	0x3f18554d	0.5950516
54	0xbd6e2727	-0.058142807
55	0xbe3db24d	-0.18525048
56	0x3e95c3c0	0.29250908
57	0x3f7f04e1	0.9961682
58	0xbcff3b34	-0.03115616
59	0x3ea429ea	0.32063228
60	0x3de99606	0.11405568
61	0xbf0862d8	-0.53275824
62	0xbd2b31d8	-0.04179558
63	0x3d55ea4f	0.052225407
64	0x3dd6a59b	0.104808055
65	0xbe1f59bc	-0.15561575
66	0xbd459b6e	-0.048243932
67	0x3de97101	0.11398507
68	0xbe985671	-0.2975345
69	0xbf93a3e8	-1.1534395
70	0x3df38a1f	0.11891579
71	0xbe17da83	-0.1482945
72	0xbe36d393	-0.17854147
73	0x3de73b18	0.11290568
74	0x3e686a34	0.22696763
75	0x3dfd2509	0.123605795
76	0xbf6446b7	-0.891704
77	0xbe0ce604	-0.13759619
78	0xbeaa6079	-0.33276728
79	0xbe710448	-0.2353679
80	0xbf20f3bf	-0.6287193
81	0xbd5aac05	-0.053386707
82	0xbab84e22	-0.0014061371
83	0x3e184bac	0.14872617
84	0x3d860322	0.06543566
85	0x3d4c7390	0.049914896
86	0xbe74b433	-0.23896866
87	0x3d04c49e	0.03241407
88	0x3e854690	0.26030397
89	0xbe9a02c4	-0.30080235
90	0x3f2c3a66	0.6727661
91	0x3d5e537f	0.054278847
92	0x3dfd76ed	0.12376199
93	0xbe542503	-0.20717244
94	0x3f41bd1a	0.7567917
95	0x3e9c855a	0.3057049

encoder.0.bias f4 [8]
0	0xbdd84996	-0.105609104
1	0x3e8d6c94	0.276219
2	0xbd10eca8	-0.035381943
3	0x3ea50abf	0.3223476
4	0xbbd54d3c	-0.006509451
5	0xbb2a50f1	-0.0025988186
6	0xbcaf292f	-0.021381943
7	0x3ecb56f1	0.3971477

encoder.2.weight f4 [16, 8, 2, 2]
0	0x3e9670a8	0.29382825
1	0xbe6bd8ac	-0.23031873
2	0xbe697172	-0.22797182
3	0xbecad2f0	-0.39614058
4	0xbf6f1833	-0.933963
5	0xbebb9cfe	-0.36643213
6	0xbe2e86ca	-0.17043605
7	0x3e9cf339	0.30654314
8	0x3f1e4b06	0.61833227
9	0xbe0aa7ad	-0.13540526
10	0x3ed0b6dd	0.40764514
11	0xbe421774	-0.18954259
12	0x3ecd7843	0.40130815
13	0x3f2cdbd3	0.67522925
14	0x3f9747c6	1.1818779
15	0x3f9c9562	1.2233088
16	0x3d26179c	0.04054986
17	0x3bd1b44b	0.0063996664
18	0xbdb268e1	-0.0871141
19	0xbde7d927	-0.113207154
20	0x3e8cd9d4	0.2750994
21	0x3e04eba1	0.1298051
22	0x3e660ad8	0.22465074
23	0x3e0a1420	0.1348424
24	0xbefac242	-0.48976332
25	0xbe3eb7b8	-0.1862477
26	0xbf20f9a9	-0.6288095
27	0x3d6766a4	0.05649437
28	0x3e233874	0.15939504
29	0xbe43fb3f	-0.19138812
30	0x3ebe11a8	0.37122846
31	0x3d9bcbe8	0.076072514
32	0x3f5aa338	0.854053
33	0x3c41fdc0	0.011840284
34	0x3ef87a20	0.48530674
35	0xbf6331b9	-0.88747746
36	0xbed36ebc	-0.4129542
37	0x3ed0db3d	0.40792266
38	0xbf1e5a4c	-0.6185653
39	0x3e06d351	0.13166548
40	0xbe5683f8	-0.2094878
41	0x3f08c977	0.5343241
42	0xbedac7da	-0.427306
43	0x3db58eae	0.088651046
44	0xbe88deb1	-0.267324
45	0x3fa0f9ee	1.2576272
46	0xbf1fbbc1	-0.62395865
47	0x3f3abfe8	0.72949076
48	0xbea0194f	-0.3126931
49	0x3e01f3b0	0.12690616
50	0xbebe43d8	-0.37161136
51	0x3d07d55c	0.03316246
52	0xbdc3ace0	-0.09554458
53	0xbddf8f70	-0.109160304
54	0xbe3a2612	-0.18178585
55	0xbeece747	-0.462702
56	0x3e40c4bc	0.18825048
57	0xbeb3a2b9	-0.35085085
58	0xbdde5701	-0.108564384
59	0xbe0ffd7a	-0.14061537
60	0x3e789957	0.24277245
61	0x3e29cf4d	0.16582985
62	0xbb4a71d8	-0.003089061
63	0xbc64364b	-0.01392896
64	0x3f187a4d	0.59561616
65	0xbf0cd590	-0.5501337
66	0x3ebf232d	0.37331524
67	0xbf03b32f	-0.5144529
68	0xbf014602	-0.5049745
69	0xbe9ddbef	-0.3083186
70	0x3d849e6e	0.064755306
71	0x3ea1f8e0	0.3163519
72	0x3d4038e2	0.046929248
73	0xbe444234	-0.1916588
74	0x3f04754b	0.51741475
75	0xbe2b4bff	-0.16728209
76	0xbdaa8540	-0.08326197
77	0xbcb1f437	-0.021722896
78	0x3ee1213f	0.43970677
79	0x3e671a9c	0.22568744
80	0x3e460ebd	0.1934156
81	0xbe20db17	-0.15708576
82	0x3f2691b6	0.6506609
83	0x3e910d90	0.2833066
84	0x3ef3a17c	0.4758414
85	0x3de3fa1a	0.111316875
86	0xbe4e972d	-0.20174856
87	0xbd4cd83e	-0.050010912
88	0x3e93aea5	0.2884418
89	0x3d94adc8	0.07259709
90	0xbe1019ed	-0.1407239
91	0xbf0cef65	-0.5505279
92	0x3d4762a4	0.048678055
93	0xbe899a17	-0.26875374
94	0x3f0e2200	0.5552063
95	0x3deba343	0.11505749
96	0xbed00652	-0.40629822
97	0xbf46f42c	-0.77716327
98	0xbed44d2f	-0.41465136
99	0xbf064271	-0.5244513
100	0x3e3709bb	0.17874806
101	0x3e29d115	0.16583665
102	0x3e312616	0.17299685
103	0x3e14fdf4	0.1455
104	0x3f006841	0.5015908
105	0xbed1216c	-0.4084581
106	0x3e9d211d	0.30689326
107	0xbf0bc714	-0.54600644
108	0x3f4dc0d7	0.80372375
109	0xbee88b6b	-0.45418867
110	0x3f392b71	0.7233191
111	0xbcc47c94	-0.023985185
112	0x3d86f1a1	0.06589056
113	0xbd0a5221	-0.03376973
114	0x3ee4601e	0.44604582
115	0x3eed6437	0.4636552
116	0x3ed0dbca	0.40792686
117	0x3e013ac9	0.12620081
118	0x3eae9adc	0.34102523
119	0xbe242039	-0.16027917
120	0x3ec0c48a	0.37649947
121	0xbe859827	-0.26092646
122	0x3e902963	0.28156576
123	0xbf2d1a00	-0.676178
124	0x3d51890f	0.0511561
125	0xbd9f93b2	-0.077918425
126	0xbd970882	-0.073746696
127	0xbd4acc4d	-0.049511243
128	0x3d826a18	0.06367892
129	0x3ec4d8fc	0.38446796
130	0x3dceb492	0.10093035
131	0x3e8a58c0	0.27020836
132	0xbec9a576	-0.3938405
133	0xbe69d98f	-0.22836898
134	0xbebbbd29	-0.36667755
135	0xbda30ec0	-0.07961798
136	0x3b8c1548	0.004274998
137	0x3e399b85	0.18125732
138	0x3dbaa3e8	0.09113294
139	0x3e4dd4ca	0.20100704
140	0xbecfe4b8	-0.40604186
141	0xbf1ea4f8	-0.6197047
142	0xbe731a07	-0.23740397
143	0xbefc577d	-0.49285498
144	0xbe472a2b	-0.1944968
145	0xbcd18cfb	-0.02557992
146	0xbe0fa64f	-0.14028285
147	0x3d7d684d	0.061867047
148	0x3e90ca4e	0.28279346
149	0x3e0f0f02	0.13970569
150	0x3e9828f7	0.29718754
151	0xbdb6f357	-0.08933132
152	0xbc1b7de4	-0.009490464
153	0xbeb08e66	-0.3448364
154	0x3d63bf87	0.055602577
155	0xbed0042b	-0.4062818
156	0xbdfb8367	-0.122809224
157	0x3e807e33	0.25096282
158	0x3e9442cf	0.2895722
159	0x3e554791	0.20828082
160	0xbf18bd62	-0.59663975
161	0x3f826758	1.0187788
162	0xbf214504	-0.62995934
163	0x3f8c00d0	1.0937748
164	0x3f88dba7	1.0692033
165	0x3e222397	0.15833889
166	0x3f352fed	0.70776254
167	0xbda9c853	-0.08290162
168	0x3e89d893	0.26923046
169	0xbe1da4f6	-0.15394959
170	0xbe8344f4	-0.25638545
171	0xbeb79a84	-0.35860074
172	0x3e72ecf7	0.23723207
173	0xbf528abc	-0.8224294
174	0xbe7bdb0e	-0.24595281
175	0xbf5df232	-0.86697686
176	0x3ca8d261	0.020608129
177	0x3df39490	0.118935704
178	0x3d905215	0.07046906
179	0x3d98b603	0.07456591
180	0x3e29cbad	0.16581602
181	0x3ccc1b3b	0.024915328
182	0x3d0ced0d	0.034405757
183	0xbd1d389d	-0.03838407
184	0xbc0de46a	-0.008660415
185	0x3cfe0a74	0.031010844
186	0x3e1ea017	0.15490757
187	0xbdac7a76	-0.08421795
188	0x3ddb584d	0.107102014
189	0xba80507c	-0.0009789611
190	0x3e90f288	0.28310037
191	0x3ea392e9	0.3194802
192	0x3ef1d2ed	0.47231236
193	0xbea021e6	-0.31275862
194	0x3f003d4a	0.5009352
195	0xbc8efca8	-0.01745446
196	0x3e2c60b7	0.16833769
197	0x3e47ec50	0.1952374
198	0x3e37161e	0.17879531
199	0x3d5b973d	0.05361103
200	0x3f07b697	0.53012985
201	0xbebdb3d1	-0.37051252
202	0x3ed9e386	0.425564
203	0xbe7a1885	-0.24423416
204	0xbd389339	-0.045062277
205	0x3e466185	0.19373138
206	0x3e3840a5	0.1799341
207	0x3e89005f	0.26758096
208	0x3ec701b8	0.388685
209	0x3ec72236	0.38893288
210	0x3e63965a	0.22225323
211	0x3ed5dd8b	0.41770586
212	0x3b967e1c	0.00459267
213	0xbc972400	-0.018449783
214	0x3e07c10f	0.1325724
215	0xbdd82ed0	-0.10555804
216	0x3dc9df40	0.09857035
217	0xbe0a8a2e	-0.13529274
218	0x3d3e6b65	0.04648914
219	0xbe22f3d7	-0.1591333
220	0xbda5e6dc	-0.081006736
221	0xbea8faa9	-0.3300374
222	0xbf0548d8	-0.52064276
223	0xbeb9eb80	-0.36312485
224	0x3fbfb4fe	1.497711
225	0x3f030541	0.5117989
226	0x3fa6b134	1.3022828
227	0xbe7eec0d	-0.24894734
228	0xbf081558	-0.5315757
229	0xbc9ca455	-0.019121328
230	0xbf15b1bb	-0.5847432
231	0x3da243b4	0.079230696
232	0xbf93dff9	-1.1552726
233	0xba54601b	-0.0008101479
234	0x3e7fddf5	0.24987014
235	0x3f26694a	0.6500441
236	0xbe9afeff	-0.30272672
237	0x3f0f0bf1	0.55877596
238	0x3eb2d94d	0.34931412
239	0x3f7f1d99	0.9965454
240	0xbd9c12f2	-0.07620801
241	0xbce31e7a	-0.027724493
242	0xbe0404b5	-0.1289242
243	0xbe58ffef	-0.21191381
244	0xbe625fa5	-0.22106798
245	0x3e7bd08e	0.24591276
246	0xbe7a0583	-0.24416165
247	0x3eac2c66	0.33627623
248	0x3c9d7aa2	0.019223515
249	0xbe1dc4b3	-0.15407066
250	0xbe96f8ce	-0.29486698
251	0xbee529a7	-0.4475834
252	0x3dd78e4b	0.10525187
253	0x3e1a5804	0.15072638
254	0x3e4d14b8	0.20027435
255	0xbe240f6c	-0.16021508

encoder.2.bias f4 [16]
0	0xbe8bdc40	-0.27316475
1	0x3ece40f6	0.40283936
2	0xbe2b0a1b	-0.16703074
3	0xbdbd04a4	-0.09229401
4	0x3f09428e	0.5361718
5	0x3d45bad8	0.04827389
6	0x3e031f0e	0.12804815
7	0xbe054688	-0.13015187
8	0xbf134950	-0.5753374
9	0xbeb4fad4	-0.35347617
10	0x3dda28bc	0.10652301
11	0xbdf711d5	-0.12063948
12	0xbede862f	-0.4346175
13	0x3c92c312	0.017915282
14	0x3e1e7ecf	0.15478061
15	0xbdb0334f	-0.08603536

encoder.4.weight f4 [32, 16, 2, 2]
0	0x9a03329d	-2.713105e-23
1	0x998663f4	-1.3895646e-23
2	0x1be1195a	3.723951e-22
3	0x1e18448a	8.0609865e-21
4	0x1ba0cd74	2.660255e-22
5	0x1c5d70b7	7.3268447e-22
6	0x1c22447d	5.3689823e-22
7	0x9c5ffa6f	-7.410819e-22
8	0xadd43b45	-2.412793e-11
9	0xb05c796a	-8.0208074e-10
10	0xafcec119	-3.7608386e-10
11	0xb28466c8	-1.5413562e-08
12	0xab90d5a4	-1.0291113e-12
13	0xaa16be3a	-1.3388674e-13
14	0xac31e0ee	-2.5278074e-12
15	0xad501601	-1.1828317e-11
16	0xb13654d7	-2.6532712e-09
17	0xb3e969cc	-1.0869152e-07
18	0xb0b6a354	-1.3288664e-09
19	0xb3b2b3f5	-8.321505e-08
20	0xb64b6449	-3.030773e-06
21	0xb605e817	-1.9953638e-06
22	0xb54cd053	-7.6299074e-07
23	0xb7eba311	-2.8090117e-05
24	0xa6fffad0	-1.7762162e-15
25	0x25718e67	2.0951666e-16
26	0x23a59e82	1.7956467e-17
27	0x2040600d	1.6294813e-19
28	0x26010b17	4.4770895e-16
29	0xaefcfc49	-1.1504448e-10
30	0xabf3b988	-1.7317684e-12
31	0xb3b5572e	-8.444327e-08
32	0x9a422d2b	-4.0154746e-23
33	0x1ad0d81c	8.637593e-23
34	0x9adfe4d0	-9.2600305e-23
35	0x9aff18db	-1.05505684e-22
36	0x1af652f1	1.01877214e-22
37	0x1a976d34	6.2628563e-23
38	0x9b4288ab	-1.6091464e-22
39	0x9b1cb5f5	-1.2962811e-22
40	0xba39c9bb	-0.000708725
41	0xba4b9dd4	-0.00077673537
42	0xba189af6	-0.0005821431
43	0xba1dec5c	-0.0006024295
44	0x9b6c22ba	-1.9532683e-22
45	0x9d2a8e09	-2.2572743e-21
46	0x9ef5be54	-2.6019102e-20
47	0x21511f8b	7.08537e-19
48	0x19b6792c	1.88673e-23
49	0x1c93d56c	9.782812e-22
50	0x9a87f3a5	-5.622832e-23
51	0xa7e7dae7	-6.4352714e-15
52	0x1c1befd3	5.1595164e-22
53	0x192e4db7	9.0112835e-24
54	0x9b32caf4	-1.4789393e-22
55	0x1b008944	1.0632265e-22
56	0x1b8c85ec	2.3247602e-22
57	0x9b350f74	-1.4976962e-22
58	0x9ce4cca6	-1.5140675e-21
59	0x9f33d655	-3.8082016e-20
60	0xaf9ac275	-2.8150607e-10
61	0xb2b9928d	-2.1603478e-08
62	0xaec6f7ff	-9.0480505e-11
63	0xb597098a	-1.1253153e-06
64	0x3e44a494	0.19203407
65	0xbec1ad1c	-0.37827384
66	0xbf8534e0	-1.0406761
67	0x3f0f9634	0.56088567
68	0xbe7b9087	-0.24566852
69	0xbf54d67c	-0.8313978
70	0x3efb2ce5	0.4905769
71	0x3f10a2f0	0.5649862
72	0xbec33fad	-0.38134518
73	0xbdc9958b	-0.09842976
74	0xbe796337	-0.24354254
75	0x3ebaab45	0.36458793
76	0x3ec13aeb	0.37740263
77	0x3eaad821	0.33368018
78	0xbf82f964	-1.0232358
79	0x3e2e21ee	0.1700513
80	0xbeb455d2	-0.35221726
81	0x3c34a8cd	0.011026573
82	0x3deed28d	0.11661253
83	0xbefb2e41	-0.49058726
84	0x3eb20bfc	0.34774768
85	0x3e3f4896	0.18680033
86	0x3e099a2d	0.1343772
87	0xbf3b7945	-0.7323192
88	0x3cb2c419	0.021822022
89	0xbe1c3365	-0.1525398
90	0xbf26accb	-0.6510741
91	0x3deb1ab0	0.114796996
92	0xbee8ea5e	-0.45491308
93	0xbf07f8fd	-0.531143
94	0x3f2201a1	0.63283736
95	0x3e86d0dd	0.26331225
96	0xbe5efa96	-0.21775278
97	0xbf1b22e7	-0.6060013
98	0xbdfc09a2	-0.12306525
99	0x3eda6d94	0.42661726
100	0x3f0f5b4d	0.5599869
101	0xbe96db7e	-0.29464334
102	0x3e7441d2	0.23853233
103	0x3f26e199	0.65187985
104	0xbe6fe916	-0.23428759
105	0xbb389425	-0.0028164473
106	0xbddc1254	-0.10745683
107	0x3de19ff5	0.110168375
108	0x3cdeba04	0.027188309
109	0xbed98be9	-0.42489555
110	0x3e53917b	0.20660965
111	0x3f909c9d	1.1297795
112	0x3de24e54	0.11050096
113	0xbe1c59d3	-0.1526864
114	0x3f8dc867	1.1076783
115	0xbe02080d	-0.12698384
116	0x3eda845e	0.42679113
117	0x3ede11c4	0.4337293
118	0x3d326695	0.04355486
119	0x3f23e62d	0.64023095
120	0x3dc10ea8	0.094266236
121	0x3e7c5e56	0.24645361
122	0xbf6525aa	-0.89510596
123	0xbf693d1c	-0.9110887
124	0xbe35c383	-0.17750363
125	0xbe73a446	-0.23793134
126	0x3eef77ae	0.46770996
127	0x3e8b5b28	0.27217984
128	0xbdea2d5d	-0.114344336
129	0x3c4fb46e	0.012677295
130	0xbc3cd9cb	-0.011526535
131	0x3d996eb7	0.0749182
132	0xbe142dee	-0.14470646
133	0x3e4c900d	0.19976826
134	0x3d45f6ae	0.048330955
135	0x3d88a8b9	0.06672806
136	0xbec78ee9	-0.3897622
137	0x3d3b3d15	0.04571255
138	0x3da665a0	0.08124852
139	0xbb1eaf25	-0.002421328
140	0x3e9e62ad	0.3093466
141	0xbc8d6475	-0.017259816
142	0x3e140522	0.14455083
143	0xbb336754	-0.002737482
144	0x3d69f8e8	0.05712214
145	0xbe07129e	-0.13190696
146	0x3dc96a87	0.098347716
147	0xbf013e26	-0.50485456
148	0x3ca632d3	0.020287907
149	0x3dd73f61	0.105101354
150	0x3d5046a6	0.050848626
151	0x3dc93a08	0.09825522
152	0xbde677c3	-0.112533115
153	0x3da233be	0.07920025
154	0x3cdf26d0	0.027240187
155	0x3ddb049d	0.10694239
156	0xbeac4208	-0.33644128
157	0x3e737d65	0.23778303
158	0x3d11dc03	0.03561021
159	0x3c9443cb	0.018098732
160	0xbdcdcb31	-0.10048521
161	0x3e90642a	0.2820142
162	0x3dabe20d	0.08392725
163	0x3e6bb4ba	0.2301816
164	0xbe05f8c4	-0.13083178
165	0x3e0e1a2b	0.1387717
166	0x3d01a9fc	0.03165625
167	0x3df95154	0.12173715
168	0x3e80fab0	0.2519126
169	0xbe1d6b5a	-0.15372983
170	0x3bce9083	0.0063038482
171	0xbe9ddd01	-0.30832675
172	0x3d423ff9	0.04742429
173	0x3e375581	0.17903711
174	0x3d811942	0.06303646
175	0xbcbd6b95	-0.023122588
176	0x3e4d5a6c	0.20054024
177	0x3ebe438e	0.37160915
178	0x3c894a44	0.016759045
179	0x3e9641ae	0.29346985
180	0xbcf58479	-0.029970394
181	0x3e880fb9	0.26574495
182	0x3de74ea1	0.11294294
183	0x3ea68249	0.32521275
184	0x3e2dee6a	0.16985479
185	0xbeacda77	-0.33760425
186	0x3e4a9436	0.197831
187	0xbe9ec78b	-0.31011614
188	0xbf0cc511	-0.549882
189	0x3e95d51e	0.29264158
190	0xbc971c76	-0.018446188
191	0x3e422c25	0.18962152
192	0x3c9a37b9	0.018825399
193	0xbd1f7ae2	-0.03893555
194	0x3dd93675	0.1060609
195	0x3e33bb73	0.17551975
196	0x3ea512b9	0.32240847
197	0xbe8f06ae	-0.27934784
198	0x3d8b8b38	0.06813663
199	0xbd20a8db	-0.039223533
200	0x3bf5f88a	0.007506435
201	0x3c9b0185	0.018921623
202	0xbd3cfb18	-0.0461379
203	0xbd433756	-0.047660194
204	0x3dabe4ca	0.083932474
205	0x3e5fa453	0.21840028
206	0x3e31052a	0.17287126
207	0x3d8192f8	0.0632686
208	0xbca602c4	-0.02026499
209	0xbda0e84f	-0.07856809
210	0x3de92f43	0.113859676
211	0x3e2192b2	0.15778616
212	0xbb8dd9f0	-0.0043289587
213	0xbdc4c158	-0.0960719
214	0x3d3b4aa7	0.04572549
215	0xbdcdb73c	-0.10044715
216	0x3e270ed0	0.16314244
217	0x3b8100b1	0.00393685
218	0xbe1ccb14	-0.15311843
219	0x3c794708	0.015214689
220	0xbd49cce5	-0.04926767
221	0xbdf28a4d	-0.11842785
222	0xbd93b757	-0.07212704
223	0x3d43d0c4	0.047806516
224	0x3e4c9779	0.19979657
225	0xbe3f8dad	-0.18706389
226	0xbdde8e1c	-0.10866949
227	0xbe5d269f	-0.21596764
228	0xbd6d67b6	-0.057960235
229	0xbe458b18	-0.19291341
230	0xbe420c9b	-0.18950121
231	0xba38588e	-0.00070322386
232	0xbe141633	-0.14461593
233	0x3e8b1a18	0.27168345
234	0x3e8766cb	0.26445612
235	0x3ed5849a	0.4170273
236	0x3d457833	0.048210334
237	0xbda8d67f	-0.08244037
238	0x3dd47e5b	0.10375663
239	0x3e818275	0.25294843
240	0x3ea588e7	0.3233101
241	0x3da8e0da	0.08246012
242	0x3eb6b0ba	0.35681707
243	0xbe606142	-0.21912101
244	0x3cfb0637	0.030642612
245	0xbec1195f	-0.3771467
246	0x3d367c15	0.044551928
247	0xbdc3ecac	-0.09566626
248	0xbbe672de	-0.007032736
249	0x3e2a870c	0.16653079
250	0xbdaedd35	-0.08538286
251	0x3e0c1694	0.13680488
252	0x3d7f4712	0.062323637
253	0xbe56eb91	-0.20988299
254	0xbb090f83	-0.0020913787
255	0xbe2268ba	-0.15860263

encoder.4.bias f4 [32]
0	0xb6421df8	-2.8925697e-06
1	0xbef33990	-0.47504854
2	0xbca5f97d	-0.020260567
3	0x3e15dd97	0.14635311
4	0x3e24144e	0.1602337
5	0x3e37ae67	0.17937623
6	0xbebcfe64	-0.36912835
7	0xbef879ce	-0.4853043
8	0xbd285715	-0.041098673
9	0xbec49618	-0.38395762
10	0x3eac3892	0.3363691
11	0x3dab7e1a	0.08373661
12	0xbefaa2b0	-0.48952246
13	0xbbc42c9b	-0.0059867627
14	0xbdbc09bc	-0.09181544
15	0x3d961b37	0.073294096
16	0xbc8dce4f	-0.01731029
17	0xbd24aaa2	-0.04020179
18	0xaa7f4d8f	-2.2675458e-13
19	0xbe352fa7	-0.17693959
20	0xbf48e35d	-0.7847193
21	0x3e8e0c16	0.27743596
22	0xab30e65c	-6.284745e-13
23	0x3e4064e8	0.18788493
24	0x3d9accdc	0.07558605
25	0xaf569a74	-1.951806e-10
26	0xbc0d7c66	-0.008635616
27	0xbdb74547	-0.089487605
28	0x3e202949	0.15640749
29	0xbe6107b3	-0.21975593
30	0x3daf2d2e	0.08553539
31	0x3d6234eb	0.055226248

decoder.0.weight f4 [32, 16, 2, 2]
0	0x801ab874	-2.453892e-39
1	0x9c309fa1	-5.843983e-22
2	0x1a2f4b70	3.625009e-23
3	0x800d5761	-1.225207e-39
4	0x801cf551	-2.659397e-39
5	0x800804d1	-7.36412e-40
6	0x9be73e38	-3.8255952e-22
7	0x8011d5e6	-1.637936e-39
8	0x9adf8b05	-9.2455236e-23
9	0x1af0000a	9.9261737e-23
10	0x1bcd500c	3.3966134e-22
11	0x000e65b2	1.322178e-39
12	0x9b95de07	-2.4793464e-22
13	0x9bb1aa57	-2.9392273e-22
14	0x1b294a46	1.4003351e-22
15	0x1cb8db2c	1.2232753e-21
16	0x8029030a	-3.766346e-39
17	0x9bc5ef5c	-3.2745599e-22
18	0x1c88e692	9.059326e-22
19	0x1bfc20e0	4.1711148e-22
20	0x99a1ec3a	-1.6742421e-23
21	0x2df6a12b	2.8038535e-11
22	0x00123a29	1.673903e-39
23	0x9726c8bc	-5.3890855e-25
24	0x0011a7c3	1.621385e-39
25	0x802eb149	-4.288031e-39
26	0x800ee46f	-1.367643e-39
27	0x801c0f09	-2.576787e-39
28	0x800ce1ae	-1.182985e-39
29	0x9bc9cb2d	-3.338396e-22
30	0xb58b53c4	-1.0380686e-06
31	0xa3f90e2b	-2.7002634e-17
32	0xb2998214	-1.7870697e-08
33	0x38a4a88f	7.851526e-05
34	0x2d793289	1.4165232e-11
35	0x375939ac	1.2947636e-05
36	0x32cd6967	2.3913072e-08
37	0xb3c8177b	-9.317497e-08
38	0xb3063218	-3.1244866e-08
39	0xb602e12b	-1.9502575e-06
40	0x8017c4eb	-2.182857e-39
41	0x9c25620e	-5.4720653e-22
42	0x1c184c74	5.0391395e-22
43	0x80154a9f	-1.955314e-39
44	0xacace485	-4.913905e-12
45	0xabf7fae9	-1.7620047e-12
46	0x2011d9b0	1.2354004e-19
47	0xa488dc43	-5.9353736e-17
48	0xa0dfae4e	-3.7893015e-19
49	0x9965c939	-1.1879659e-23
50	0x801f7030	-2.887146e-39
51	0xb1bf6d78	-5.5712768e-09
52	0xb12d387d	-2.5206923e-09
53	0x2a194d88	1.3616029e-13
54	0x1e34195b	9.534364e-21
55	0x000ddf4b	1.273964e-39
56	0x2515826c	1.2967879e-16
57	0x99bf5208	-1.978207e-23
58	0x9dc8df17	-5.317023e-21
59	0xad873be9	-1.5374329e-11
60	0x1bddf03d	3.6716633e-22
61	0x1b0a8f77	1.1461448e-22
62	0xa060185c	-1.8981598e-19
63	0x9cf1539f	-1.5969658e-21
64	0xbb87c1cb	-0.004142975
65	0x3e453c19	0.19261207
66	0x3f1a7ab2	0.6034347
67	0xbb189b3b	-0.0023285884
68	0x80049f71	-4.24539e-40
69	0x0b858f73	5.1445575e-32
70	0x3f88a3f9	1.067504
71	0x800540fa	-4.82487e-40
72	0x3d0c8af0	0.03431219
73	0x3f1c00f0	0.6093893
74	0x3ec106c6	0.3770048
75	0x000345b1	3.00507e-40
76	0x3db132a4	0.08652237
77	0x3ebc84af	0.3681998
78	0x3edb8c80	0.4288063
79	0x3ea06a2b	0.31331
80	0x80010320	-9.2957e-41
81	0x3ebe4e5a	0.37169152
82	0xbdee08b1	-0.116227515
83	0xbd150f47	-0.036391523
84	0x3ea644b8	0.32474303
85	0xbbcc9802	-0.0062437067
86	0x3c2033a9	0.009777942
87	0xbca0d505	-0.019632826
88	0x000869cb	7.72635e-40
89	0x80089b46	-7.90386e-40
90	0x0000270d	1.4009e-41
91	0x8001d5ba	-1.68506e-40
92	0x0e9d4ca9	3.877731e-30
93	0x3efab89f	0.4896898
94	0x3ffc420a	1.9707654
95	0x3f01041f	0.50396913
96	0x3fed2da3	1.8529552
97	0x3f31ad62	0.69405186
98	0x3f66ca3f	0.90152353
99	0x3ef00193	0.468762
100	0x3e974d16	0.29551
101	0xbef58ff5	-0.47961393
102	0xbf022780	-0.5084152
103	0xbee4d5ce	-0.4469437
104	0x379353ff	1.756288e-05
105	0x3e18cb2f	0.14921258
106	0xbe5f7c54	-0.21824771
107	0x8006d6bd	-6.28047e-40
108	0x3e7b6b98	0.24552763
109	0x3ea82755	0.32842508
110	0x3dd46dbd	0.103724934
111	0xbd159776	-0.036521398
112	0x3d2e714d	0.04258852
113	0xbe3f64a9	-0.18690743
114	0xbbdedce2	-0.0068012336
115	0xbf49673e	-0.7867316
116	0xbe92757d	-0.2860526
117	0x3fd3b90f	1.654085
118	0x3f36107c	0.71118903
119	0x00022f92	2.00736e-40
120	0x3e37704c	0.17913932
121	0x3e852475	0.26004377
122	0x3ebd6be0	0.36996365
123	0x3ee14617	0.43998787
124	0xbe32f6b9	-0.1747693
125	0x3e9af39e	0.3026399
126	0x3d91b717	0.07115
127	0x3ddc7a61	0.107655294
128	0xbbf5ed21	-0.0075050746
129	0x3ea7ca41	0.32771495
130	0x3e2e550e	0.17024633
131	0xbbdf430d	-0.006813413
132	0x001cba06	2.638127e-39
133	0x800390d4	-3.27461e-40
134	0xbe49fb43	-0.19724755
135	0x800f60ba	-1.412231e-39
136	0xbdbc269c	-0.09187052
137	0xbdbfd185	-0.093661346
138	0xbe1b7fca	-0.15185466
139	0x0009d46a	9.02719e-40
140	0xbec9f2ea	-0.3944314
141	0xbdebf749	-0.11521775
142	0xbe2902a8	-0.1650492
143	0x3dc8ae7e	0.09798907
144	0x00138fd2	1.796467e-39
145	0x3e178f70	0.14800811
146	0x3dbc466a	0.09193118
147	0x3e94f435	0.29092565
148	0xbf708482	-0.9395219
149	0x3e8841ad	0.26612607
150	0xbc059595	-0.008153339
151	0xbced1112	-0.028938804
152	0x8005e036	-5.39609e-40
153	0xb6884c56	-4.0620025e-06
154	0x8005444f	-4.83682e-40
155	0x80057ac5	-5.03219e-40
156	0xbcd67632	-0.026179407
157	0x3da60821	0.08107019
158	0x3e6c9db9	0.23107041
159	0xbf2e0174	-0.6797097
160	0x3eaf02b1	0.3418174
161	0x3d8de5e7	0.06928616
162	0x3e7de385	0.24793823
163	0x3e3b94c6	0.18318471
164	0x3e560a59	0.20902385
165	0x3d10e4a4	0.0353743
166	0x3d9a73c1	0.075416096
167	0xbdf5bb85	-0.11998657
168	0xbb995e7e	-0.004680454
169	0x3d05b17f	0.032639977
170	0x3e0746e1	0.13210632
171	0xbb9d943a	-0.0048089297
172	0x3e578a1c	0.21048778
173	0x3d76b24d	0.060228635
174	0xbc9d5646	-0.019206177
175	0xbe2b0365	-0.16700514
176	0x3e99a4d8	0.30008578
177	0x3d6471f8	0.05577275
178	0xbc77b993	-0.015119928
179	0xbdcd9faa	-0.10040219
180	0xbded4f8c	-0.11587438
181	0x3f076c4a	0.5289961
182	0x3d2a9564	0.041646376
183	0xb8736e06	-5.8038182e-05
184	0x3ef01667	0.46892092
185	0x3e691543	0.22762017
186	0x3ebcee8f	0.36900756
187	0x3ebc9967	0.36835787
188	0xbd836a05	-0.06416706
189	0xbe552770	-0.20815825
190	0x3dab432b	0.08362421
191	0x3e8dd1d9	0.27699164
192	0xbc7fcd94	-0.0156129785
193	0x3e30cea8	0.17266333
194	0xbde04fc2	-0.109527126
195	0xbc923cef	-0.017851321
196	0x00177416	2.15386e-39
197	0x8006480a	-5.76856e-40
198	0xbd3b3bfa	-0.045711495
199	0x000c704b	1.142309e-39
200	0x3e754a99	0.23954238
201	0xbb0cf01f	-0.0021505428
202	0xbdd3c4c4	-0.103402644
203	0x00084649	7.59898e-40
204	0xbe0a3048	-0.1349498
205	0xbe114b5d	-0.14188905
206	0xbe8b7d4a	-0.27244025
207	0xbe7b0584	-0.24513823
208	0x9318fe24	-1.9310398e-27
209	0xbc954f24	-0.018226214
210	0x3d69890d	0.057015467
211	0x3b1b8679	0.0023731275
212	0x3de44c05	0.11147312
213	0x3d11d0a2	0.03559936
214	0xbd67d6fc	-0.05660151
215	0xbdacc473	-0.08435907
216	0x00008cc0	5.0492e-41
217	0xb89e413d	-7.546179e-05
218	0x00025d91	2.17236e-40
219	0x0001cd51	1.65489e-40
220	0xbd273384	-0.040820614
221	0x3d349c9e	0.044094674
222	0xbf1ea5fa	-0.6197201
223	0x3e1803fa	0.14845267
224	0xbe668d5b	-0.2251486
225	0x3cf82b51	0.030294092
226	0x3d9f04c7	0.07764583
227	0xbd14c8d4	-0.036324337
228	0xbd2724ec	-0.040806696
229	0x3e5a46ea	0.21316114
230	0x3e66a5ca	0.22524181
231	0x3e684841	0.22683813
232	0xbc28eebf	-0.010310828
233	0xbbc46929	-0.0059939814
234	0x3e27be9b	0.16381304
235	0xbd619a81	-0.055078987
236	0xbc7b1ad7	-0.015326223
237	0x3e11acaf	0.1422603
238	0x3e3415f0	0.17586493
239	0x3ea45b15	0.3210074
240	0xbcf9b8df	-0.030483661
241	0xbe808973	-0.25104865
242	0xbc3bbe53	-0.011458951
243	0x3e96d547	0.29459593
244	0xbc1c7e6a	-0.009551624
245	0xbd9bbf03	-0.07604792
246	0xbda3dfae	-0.08001648
247	0xb74e032b	-1.2279294e-05
248	0x3e49c599	0.19704284
249	0xbd90ede4	-0.07076624
250	0xbb1728a7	-0.0023065002
251	0xbc224e25	-0.009906326
252	0xbd7a0df5	-0.061048467
253	0xbe958d89	-0.29209545
254	0xbcec76cf	-0.028865246
255	0xbd9fa2d2	-0.077947274

decoder.0.bias f4 [16]
0	0x3d502fad	0.050826717
1	0xbe62e79c	-0.22158664
2	0xbe3084da	-0.17238179
3	0xbce67c48	-0.028135434
4	0xbd85f211	-0.06540311
5	0x3def51b3	0.11685505
6	0xb498b64e	-2.844485e-07
7	0xbbb27bad	-0.005446872
8	0xbd1e224a	-0.03860692
9	0x3e2eacd3	0.17058115
10	0x3c9d1f12	0.019179855
11	0xbdb0dcab	-0.08635839
12	0x3d8e195e	0.06938432
13	0xbcc23f8a	-0.023711938
14	0x3d265892	0.04061181
15	0xba9313c4	-0.00112211

decoder.2.weight f4 [16, 8, 2, 2]
0	0x800386ee	-3.2391e-40
1	0x0006793b	5.94502e-40
2	0x80086874	-7.72155e-40
3	0x0003da74	3.53873e-40
4	0x3d14a539	0.03629038
5	0x3f07019a	0.5273682
6	0x3e101323	0.140698
7	0xb913f48f	-0.00014110118
8	0x3e89970a	0.26873046
9	0x3e820b5f	0.253993
10	0x3e26c047	0.16284285
11	0x3e64c76a	0.22341695
12	0x3e5003c9	0.20313944
13	0x3ea7e3ae	0.32790893
14	0x002b5601	3.979779e-39
15	0xa831ad26	-9.863019e-15
16	0xbcdbe4fe	-0.02684259
17	0x3c89dde5	0.01682944
18	0xbd8224ca	-0.06354673
19	0x3d17d03b	0.03706382
20	0xbc75d1c2	-0.015003623
21	0xbe284e53	-0.16436128
22	0xbdc13652	-0.09434189
23	0x3cfdf522	0.031000677
24	0x3dfbd4c6	0.12296443
25	0x3e306220	0.17224932
26	0x3e2fb557	0.1715902
27	0xbc8be81c	-0.017078452
28	0x80047f63	-4.1304e-40
29	0x3e0be8e6	0.13663062
30	0x3e8bb885	0.27289215
31	0x3e3fb4b2	0.18721274
32	0x000c192f	1.11106e-39
33	0x80082cff	-7.50826e-40
34	0x000ba0cf	1.067878e-39
35	0x000c73c5	1.143556e-39
36	0x3e8467c3	0.25860414
37	0x3f9aa8ec	1.2082801
38	0x3f542389	0.8286672
39	0xb3bb1a2d	-8.7126274e-08
40	0x3dc49de6	0.09600429
41	0x3e0226dc	0.12710136
42	0x3db97e79	0.09057326
43	0x3e61b989	0.22043432
44	0xbe02b6f7	-0.12765108
45	0x3f5a843f	0.8535804
46	0x8017278c	-2.126403e-39
47	0x8008bde1	-8.028e-40
48	0xbbdf0b91	-0.0068067987
49	0x3e1d3f96	0.15356287
50	0x3e001335	0.12507327
51	0x3e82f545	0.2557775
52	0x3e4dd9b2	0.20102575
53	0xbe4130a6	-0.18866214
54	0x3e4eec13	0.20207243
55	0xbdecbed8	-0.11559838
56	0x3d5f260a	0.054479636
57	0xbe2356fe	-0.15951154
58	0x3b6cfaad	0.0036160157
59	0xbd6c15c9	-0.057637963
60	0x80190127	-2.296301e-39
61	0x3eceb715	0.40374056
62	0x3e3717cd	0.17880173
63	0x3f1f0b12	0.62126267
64	0x8004f57f	-4.5541e-40
65	0x09b119ae	4.263535e-33
66	0x9d12bf5e	-1.9421874e-21
67	0x00043fc3	3.90215e-40
68	0x3ed9b4e6	0.42520827
69	0x3f285d6a	0.6576754
70	0x3f23143c	0.6370275
71	0xbcc23034	-0.023704626
72	0xbe561a6c	-0.20908517
73	0xbe54de17	-0.20787846
74	0xbda12880	-0.07869053
75	0xbd030db9	-0.03199551
76	0x3ebcd356	0.36879987
77	0x3f1dec11	0.61688334
78	0x0002bf22	2.52237e-40
79	0xb30beb8a	-3.257768e-08
80	0x3e571f9d	0.21008153
81	0x3e649e92	0.22326115
82	0x3e8656ec	0.2623819
83	0x3e9ba6c7	0.3040068
84	0x3e3fc44c	0.18727225
85	0xbd8fc28d	-0.070195295
86	0x3dc0d3a6	0.09415369
87	0xbb8f8811	-0.004380234
88	0x3c16e29f	0.009209304
89	0xbc64afec	-0.013957959
90	0x3d42dbc7	0.047572877
91	0x3da110b4	0.07864514
92	0x0002e50d	2.65839e-40
93	0x3df880bd	0.1213393
94	0x3ec7ba01	0.39009097
95	0x3e11a3c0	0.14222622
96	0x00081e6a	7.45594e-40
97	0xb861441c	-5.3707612e-05
98	0x80040cdb	-3.71954e-40
99	0x00012f04	1.08702e-40
100	0x3e9426a6	0.28935736
101	0x3f06f349	0.52714974
102	0x3ca3b6b7	0.019984586
103	0x3d8d8b04	0.06911281
104	0x3e68df2f	0.22741388
105	0x3e39b4a8	0.18135321
106	0x3e05c4cd	0.13063355
107	0x3df0d858	0.11760014
108	0x3e82c798	0.25542903
109	0x3e1b90d8	0.15191972
110	0x00085d05	7.68053e-40
111	0xbb037a75	-0.0020062004
112	0x3d8b280f	0.0679475
113	0x3d3dd846	0.046348833
114	0xbcfe1f78	-0.031020865
115	0xbd6a64b6	-0.05722495
116	0xbd8e9684	-0.06962302
117	0x3e1c9890	0.15292573
118	0x3e388634	0.18019944
119	0x3e814ded	0.25254765
120	0xbe729145	-0.23688228
121	0xbd9cbb9d	-0.07652972
122	0xbe50585c	-0.20346206
123	0x3bb80d3d	0.0056168125
124	0xa47ece2f	-5.5252115e-17
125	0xbd4914f2	-0.04909224
126	0x3d9a0612	0.07520689
127	0xbcfd2ffe	-0.030906674
128	0x000a67ad	9.55547e-40
129	0xa0a3dc0d	-2.7758891e-19
130	0x80030905	-2.78742e-40
131	0x80011454	-9.9128e-41
132	0x3d0c48dc	0.03424917
133	0xbf053605	-0.5203555
134	0x3ee86da5	0.45396152
135	0xbcb88f69	-0.02252932
136	0x3e6f421d	0.23365064
137	0x3e27258b	0.16322915
138	0x3e6fb40e	0.23408529
139	0x3e30fed5	0.1728471
140	0xbd2e091c	-0.042489156
141	0x3d24c670	0.040228307
142	0x801e1fb1	-2.766434e-39
143	0xb580d240	-9.597934e-07
144	0xbd8cf208	-0.06882101
145	0xbe3ead88	-0.18620884
146	0xbda7ae53	-0.081875466
147	0xbe641c67	-0.2227646
148	0xbdb96c8e	-0.09053908
149	0x3d39bae8	0.045344263
150	0xbd8081da	-0.06274767
151	0xba7dc45c	-0.0009680444
152	0x3b836719	0.004010093
153	0x3d717b54	0.058955505
154	0xbd167632	-0.036733814
155	0xbdf751dc	-0.1207616
156	0x00012d72	1.08138e-40
157	0xbdb4138b	-0.0879279
158	0x3e68ee85	0.22747238
159	0xbdce6a12	-0.10078825
160	0x00019275	1.44374e-40
161	0x8006a858	-6.11403e-40
162	0x00094ae0	8.5338e-40
163	0x80042f13	-3.84229e-40
164	0x3ec05446	0.37564296
165	0x3df85a56	0.12126605
166	0x3f200e96	0.62522256
167	0xbdb8b8ab	-0.090195976
168	0xbd28db92	-0.041225024
169	0x3dd3c1b5	0.10339681
170	0x3ddd5128	0.10806495
171	0x3e2969fe	0.16544339
172	0x3e94dc7a	0.2907446
173	0x3e9ebdf9	0.31004313
174	0x8025abf1	-3.459594e-39
175	0x0004aa05	4.28334e-40
176	0x3e2738b8	0.1633023
177	0x3ec6f8a7	0.38861582
178	0x3e99789f	0.2997484
179	0x3eaeffae	0.34179443
180	0xbd299740	-0.04140401
181	0xbe24978b	-0.16073434
182	0xbd854d0d	-0.06508837
183	0xbd7610e3	-0.0600747
184	0xbe89ff5b	-0.26952633
185	0xbdf1d19d	-0.11807559
186	0x3c89fde5	0.0168447
187	0xbd6fb4ca	-0.058522023
188	0x8001e89d	-1.75281e-40
189	0x3e6cc21e	0.23120925
190	0x3ebbf9e7	0.36714098
191	0x3d213dce	0.039365582
192	0x80181230	-2.210576e-39
193	0x001659c4	2.052583e-39
194	0x800247f2	-2.0948e-40
195	0x0001f4c4	1.79641e-40
196	0xafff8f98	-4.648626e-10
197	0xaf9239cf	-2.659832e-10
198	0x310b88af	2.0304858e-09
199	0xae00afa8	-2.9259845e-11
200	0x30259e56	6.025166e-10
201	0x2eec4c06	1.0745542e-10
202	0x29dddd61	9.8527747e-14
203	0x1ec4c659	2.0834342e-20
204	0x0002d2ee	2.59338e-40
205	0x80060a63	-5.54739e-40
206	0x8018e184	-2.284952e-39
207	0x001a30c7	2.405221e-39
208	0x163f508c	1.5454273e-25
209	0x28aab969	1.89542e-14
210	0x8004c95e	-4.39579e-40
211	0x1b6c28b2	1.9534612e-22
212	0xaa246910	-1.4602577e-13
213	0xb304d466	-3.092682e-08
214	0xa09c724b	-2.650306e-19
215	0xad7c444e	-1.4339708e-11
216	0xa7d21276	-5.8306724e-15
217	0xb05e6779	-8.0910173e-10
218	0x9e32faf2	-9.475136e-21
219	0xa9aa3f7b	-7.560529e-14
220	0x801420dc	-1.848498e-39
221	0x3469296e	2.1714888e-07
222	0x960af722	-1.1225533e-25
223	0x2f59d34b	1.9811101e-10
224	0x80157eb2	-1.973995e-39
225	0x80049d45	-4.2376e-40
226	0x00169dcd	2.076989e-39
227	0x80096622	-8.63158e-40
228	0xbf9dfe63	-1.2343258
229	0xbfa92423	-1.3214153
230	0xbfc350dd	-1.5259053
231	0xb93f0178	-0.00018215727
232	0xbea42ffc	-0.3206786
233	0xbef1904c	-0.47180402
234	0xbee3b010	-0.44470263
235	0xbf1454fe	-0.5794219
236	0xbf3d2ffb	-0.7390134
237	0xbf56df77	-0.8393473
238	0x000dbd1e	1.261704e-39
239	0x00086681	7.71455e-40
240	0xbec56890	-0.38556337
241	0xbed66919	-0.41877058
242	0xbec5be0e	-0.38621563
243	0xbeeb859c	-0.46000373
244	0x3f852a8e	1.0403612
245	0x3fdadaf4	1.7098069
246	0x3ff09f6d	1.8798653
247	0x4014982a	2.3217874
248	0x3f9c2b3b	1.2200693
249	0x3fe1caec	1.7640052
250	0x40109972	2.2593656
251	0x401047ce	2.2543826
252	0x800146da	-1.17252e-40
253	0x3dffe5e8	0.12495023
254	0xbf2f5083	-0.68482226
255	0xbddf83b8	-0.10913795

decoder.2.bias f4 [8]
0	0xb48360e1	-2.447114e-07
1	0xbe3804c7	-0.17970572
2	0xbce0a360	-0.027421653
3	0xbe18d18c	-0.14923686
4	0x3e1e8503	0.15480427
5	0x3d40a215	0.047029573
6	0xbc4b3910	-0.0124037415
7	0xbd51f717	-0.051261034

decoder.4.weight f4 [8, 3, 2, 2]
0	0x12b4b1f4	1.1403466e-27
1	0x802f6fd4	-4.356385e-39
2	0x1f73d544	5.163366e-20
3	0x1906da82	6.971765e-24
4	0x19105a4c	7.462861e-24
5	0x0a363116	8.772213e-33
6	0x242a1eb3	3.6888877e-17
7	0x1f3e2614	4.0265562e-20
8	0x1e1168e2	7.697925e-21
9	0x158b8c8f	5.6363415e-26
10	0x25babbed	3.23932e-16
11	0xa1d27ed3	-1.4263724e-18
12	0x3fa5a459	1.294078
13	0x3fad08d0	1.3518314
14	0x3fbe723a	1.4878609
15	0x4006f9cd	2.1089966
16	0x3fcd51e2	1.6040614
17	0x3fbb26b9	1.4621192
18	0x3fd227cf	1.6418399
19	0x40097653	2.147847
20	0x3fd68f95	1.6762568
21	0x3fe0254a	1.751138
22	0x3fbd8654	1.4806619
23	0x4008abac	2.135478
24	0x3dd21638	0.10258144
25	0x3e99f726	0.30071372
26	0x3ea979a5	0.3310062
27	0x3edc6875	0.43048444
28	0x3dc7f179	0.09762854
29	0x3e620516	0.22072253
30	0x3e8def3b	0.2772158
31	0x3e986735	0.2976624
32	0xbe6f6b6a	-0.23380819
33	0xbc72871d	-0.014802721
34	0x3d1bb634	0.03801556
35	0x3e233a0e	0.15940115
36	0x3f9958f7	1.1980275
37	0x3f529724	0.8226187
38	0x3f43e262	0.7651731
39	0x3f5714fe	0.84016407
40	0x3f7e367e	0.993019
41	0x3f3bf608	0.7342229
42	0x3f1745f4	0.59091115
43	0x3f40d503	0.7532503
44	0x3f588126	0.84572065
45	0x3f35a79c	0.70958877
46	0x3ee9bb4d	0.45650712
47	0x3f359676	0.7093271
48	0x3db3b558	0.08774823
49	0x3dd27d82	0.10277845
50	0x3d6b0c2f	0.057384666
51	0x3d997094	0.07492176
52	0x3dd44591	0.10364831
53	0x3d4e884f	0.050422963
54	0x3e1c9ceb	0.15294234
55	0x3d2a6936	0.041604243
56	0x3eb7c77a	0.35894376
57	0x3e896d7e	0.26841348
58	0x3ecae26c	0.3962587
59	0x3e887748	0.26653504
60	0xbf07a905	-0.5299228
61	0xbf030066	-0.5117248
62	0xbef25583	-0.47330865
63	0xbee06c8e	-0.4383282
64	0xbea111b0	-0.31458807
65	0xbe911ffe	-0.2834472
66	0xbe47ce3b	-0.19512264
67	0xbe37718a	-0.17914405
68	0xbe84f803	-0.25970468
69	0xbe9cf342	-0.3065434
70	0xbe5d8535	-0.21632846
71	0xbe7993d1	-0.24372794
72	0xbe853423	-0.2601634
73	0xbe97d616	-0.29655522
74	0xbe826346	-0.25466365
75	0xbe902eff	-0.28160855
76	0xbf19b164	-0.600363
77	0xbf157453	-0.5838062
78	0xbf174e23	-0.591036
79	0xbf133b2a	-0.5751215
80	0xbef85fb9	-0.4851053
81	0xbf02330e	-0.50859153
82	0xbeda5534	-0.4264313
83	0xbedd501a	-0.43225175
84	0x3eba8de2	0.36436373
85	0x3ec31e11	0.38108876
86	0x3f0d953c	0.5530584
87	0x3ee8192f	0.45331714
88	0x3eb8b42c	0.3607496
89	0x3eb6203e	0.35571474
90	0x3ede87c3	0.43462953
91	0x3ed7868e	0.42094845
92	0x3eca2fc3	0.39489564
93	0x3ee94dc9	0.45567158
94	0x3ed5a458	0.41726947
95	0x3edf9c63	0.43674

decoder.4.bias f4 [3]
0	0xbd7da82e	-0.061927967
1	0xbc38fd4e	-0.011290861
2	0xbe573834	-0.21017534
