ae_weights/n_26.pth (torch, 25217 bytes, 12 tensors)

encoder.0.weight f4 [8, 3, 2, 2]
0.025516542 0.009626519 0.14652424 0.14600211 -0.6776255 -0.20394163 -0.2665689 0.22369963
-0.5245548 -0.23159431 0.06277898 0.29618183 0.3308898 0.5065942 0.68214124 0.5314132
-1.1038507 -1.1120579 -1.1530138 -1.1480784 0.8092145 0.6454013 0.53560185 0.6975889
-0.05338106 -0.16109765 -0.15463461 -0.15056701 0.25600854 -0.2601771 0.10631092 -0.6220123
0.18209991 0.03790303 -0.21690579 -0.39384896 0.11275909 -0.020768737 -0.00097369455 0.010911216
0.022235762 0.018150097 -0.07816529 -0.038036183 -0.110473946 0.0013637124 -1.3821049 -1.1309394
1.2546211 -0.09060817 1.4584268 0.64166886 -0.25717977 0.25291845 -0.03352441 -0.31306344
-0.108718045 0.27444196 -0.2277718 0.09312074 -1.8302684 -1.1079886 -1.0611936 -0.44220272
-0.024185114 0.008433647 0.01086607 0.00055626786 0.013147249 -0.0032573296 0.04880956 0.029130114
-0.44636095 0.12517181 -0.039466992 0.0028821202 0.25133064 -0.010460612 0.45289165 0.3821456
0.77501565 0.33471632 0.68440217 0.33810875 -0.87661576 -0.7333382 0.10066417 -0.40211803
0.9934692 1.206635 0.6596217 1.2638719 -0.070067495 -0.35417214 -0.6841383 -0.829183
00000000: 1108 d13c 8cb8 1d3c 730a 163e 9481 153e
00000010: dd78 2dbf 13d6 50be b87b 88be 8411 653e
00000020: 3949 06bf 0f27 6dbe 4492 803d 25a5 973e
00000030: 636a a93e 28b0 013f cfa0 2e3f b20a 083f
00000040: fb4a 8dbf ea57 8ebf f595 93bf 3cf4 92bf
00000050: ae28 4f3f 0539 253f 341d 093f 3095 323f
00000060: 19a6 5abd c8f6 24be 8958 1ebe 3d2e 1abe
00000070: 8d13 833e ef35 85be 8ab9 d93d 333c 1fbf
00000080: 6678 3a3e 3540 1b3d 8d1c 5ebe 92a6 c9be
00000090: 3dee e63d 3323 aabc 893f 7fba f5c4 323c
000000a0: c627 b63c 83af 943c 2015 a0bd d4cb 1bbd
000000b0: 2a40 e2bd 98be b23a d0e8 b0bf 9fc2 90bf
000000c0: 6d97 a03f c790 b9bd bbad ba3f 6944 243f
000000d0: 11ad 83be 877e 813e e450 09bd da49 a0be
000000e0: 91a7 debd a883 8c3e 033d 69be 16b6 be3d
000000f0: 3c46 eabf 92d2 8dbf 31d5 87bf 6568 e2be
00000100: dc1f c6bc 482d 0a3c 9a07 323c 81d2 113a
00000110: 8f67 573c ec78 55bb 88ec 473d 47a2 ee3c
00000120: 6c89 e4be 0a2d 003e 24a8 21bd f4e1 3c3b
00000130: 69ae 803e fd62 2bbc 6ae1 e73e 97a8 c33e
00000140: 6d67 463f f05f ab3e fb34 2f3f 971c ad3e
00000150: e469 60bf 0dbc 3bbf 0429 ce3d 6ae2 cdbe
00000160: ff53 7e3f 0473 9a3f f8dc 283f 8ec6 a13f
00000170: 8c7f 8fbd 0d56 b5be b023 2fbf 5645 54bf

encoder.0.bias f4 [8]
-0.038641583 -0.034944803 -0.7131863 0.007934216 0.07406879 0.0034148046 0.063166305 -0.070933655
00000000: a346 1ebd 4822 0fbd 6193 36bf 84fe 013c
00000010: 61b1 973d eaca 5f3b 565d 813d aa45 91bd

encoder.2.weight f4 [16, 8, 2, 2]
0.06563285 -0.049884886 0.037204187 -0.025429875 0.13866453 0.18547302 -0.021288112 0.15752377
0.5065799 0.44860798 -0.04574864 0.1996075 0.038473696 0.010300225 -0.2360633 -0.15263695
0.024367126 -0.25941706 0.30458763 0.024783269 0.14058287 0.16970067 -0.21554907 -0.0971513
0.16366553 -0.15361077 0.5145892 0.22135249 0.10365702 0.08961725 0.010966565 -0.063618496
-0.031873792 -0.034398638 -0.07384489 -0.0044913166 -0.25384945 -0.07141851 0.1717276 0.15313192
-0.049211215 -0.15214866 0.093867294 0.15550667 -0.00543546 -0.15962543 0.11308555 0.030069014
0.05798392 0.19213155 -0.06897037 -0.19373234 -0.10649993 -0.18446703 0.29321888 0.32290483
0.24811676 0.14597084 0.06344391 -0.061555218 -0.15945208 -0.024667239 0.023751568 -0.008881275
0.064525284 0.012158317 0.16593063 0.09844008 0.06211431 0.12084978 -0.0047847545 0.092361815
0.62372696 0.48130396 0.57080835 0.54293823 0.13915582 -0.002993668 0.18148594 0.2235069
0.0060359347 -0.1409387 0.032575026 -0.07142806 0.11700071 0.005272064 0.06266513 0.17439336
-0.11506235 0.0043571307 0.015147868 -0.24646135 -0.16683453 0.034565262 -0.23388399 -0.014917786
0.01833689 0.050129738 -0.029001474 0.12386194 0.0020715299 0.17221256 0.13319384 -0.152696
0.27831236 0.35141468 -0.06529728 -0.049714312 -0.021880664 0.099083394 -0.10819461 0.0010608637
-0.021523084 -0.51959693 -0.0841976 -0.11071995 -0.04738666 0.38845477 -0.018050885 0.084087655
0.024983546 -0.06276401 -0.020265235 -0.016654124 0.060734205 0.0013544781 0.036963716 -0.057137765
0.3341452 -0.30883425 0.30861577 -0.19494748 0.10253157 1.2123412 0.1478352 0.87750936
0.18321441 -0.04916956 0.20043792 0.08473491 -0.09902713 -0.76900274 0.06372286 -0.15275355
0.016836159 -0.7716682 -0.013843846 -0.4822475 -0.120459035 -0.07084261 -0.11609526 0.010487748
-0.38724208 -1.7698417 -0.23929183 -0.91587263 -0.05474929 0.83830833 -0.08036753 0.60060596
0.34653756 0.26212743 0.10337168 0.15762238 -0.048720468 0.14558369 0.02233841 0.02785915
0.54646206 0.20495336 0.09973064 -0.26364443 0.1907891 0.037494004 0.1568299 -0.14697409
-0.14719653 0.1234518 0.1240808 0.1661318 0.10015797 -0.09442173 0.01772179 -0.13434432
-0.2210581 -0.11866781 -0.018791685 0.16203485 0.021096209 0.06250748 -0.00055927754 0.06835479
0.09906512 0.052196603 -0.10150341 -0.08698097 -0.017804196 0.018559892 -0.045037977 -0.1143222
-0.0036875147 0.08667648 0.010143858 0.06970721 -0.059853446 -0.13302545 0.035675872 -0.019332655
0.10371734 0.3334279 0.061968714 0.21638761 -0.16146201 0.0046940986 -0.16322228 -0.08585094
0.12951288 0.23026587 0.021447295 0.16523357 0.047047306 0.023971183 0.14736876 0.04208858
0.059671957 -0.012949707 0.28248948 0.46658403 -0.51079404 -1.3587265 0.44072732 1.0439966
0.012856095 0.13805076 0.26025063 -0.059273887 -0.0253512 -0.16358304 -0.47175124 -1.4023378
-0.06510654 -0.2149928 -0.16823258 0.25142828 0.008217475 -0.015379374 0.091335766 -0.16347884
0.07937379 0.15709162 0.16802092 -0.6712138 0.18584764 1.1778902 0.2209301 -1.7295198
00000000: 846a 863d 1854 4cbd 6b63 183d 5052 d0bc
00000010: 13fe 0d3e a4ec 3d3e 6864 aebc e94d 213e
00000020: 38af 013f f2af e53e ed62 3bbd e965 4c3e
00000030: 9896 1d3d 46c2 283c 94ba 71be dc4c 1cbe
00000040: 919d c73c 50d2 84be e9f2 9b3e 4806 cb3c
00000050: f5f4 0f3e 03c6 2d3e e5b8 5cbe 43f7 c6bd
00000060: f097 273e 244c 1dbe 1ebc 033f 3aaa 623e
00000070: 224a d43d 4089 b73d 1cad 333c 6a4a 82bd
00000080: 188e 02bd 96e5 0cbd fd3b 97bd e52b 93bb
00000090: 8ef8 81be de43 92bd 5cd9 2f3e 9dce 1c3e
000000a0: b391 49bd dccc 1bbe 7f3d c03d 243d 1f3e
000000b0: f11b b2bb d974 23be 6699 e73d 4b53 f63c
000000c0: 8c80 6d3d 22be 443e 5640 8dbd c561 46be
000000d0: a31c dabd ede4 3cbe c920 963e c853 a53e
000000e0: 5212 7e3e 6179 153e e1ee 813d 5321 7cbd
000000f0: 6847 23be f312 cabc a692 c23c c482 11bc
00000100: d525 843d ad33 473c b8e9 293e f49a c93d
00000110: 936b 7e3d 1780 f73d 6ec9 9cbb 3128 bd3d
00000120: 92ac 1f3f 796d f63e 7f20 123f 00fe 0a3f
00000130: dd7e 0e3e 6a31 44bb 73d7 393e fede 643e
00000140: 17c9 c53b 3c52 10be 646d 053d e048 92bd
00000150: 119e ef3d 47c1 ac3b 9356 803d 2c94 323e
00000160: cfa5 ebbd 43c6 8e3b c32e 783c 5d60 7cbe
00000170: acd6 2abe 4e94 0d3d 497f 6fbe bb69 74bc
00000180: 3f37 963c d754 4d3d 8094 edbc 54ab fd3d
00000190: 81c2 073b 7d58 303e f763 083e 575c 1cbe
000001a0: f57e 8e3e a0ec b33e 95ba 85bd 3ca1 4bbd
000001b0: 143f b3bc 3cec ca3d 2395 ddbd ae0c 8b3a
000001c0: 2e51 b0bc 4e04 05bf cb6f acbd 24c1 e2bd
000001d0: 8418 42bd 8be3 c63e 73df 93bc 2636 ac3d
000001e0: 4baa cc3c 6b8a 80bd 4703 a6bc 3b6e 88bc
000001f0: 6ec4 783d be88 b13a 4467 173d 4a09 6abd
00000200: 1415 ab3e 861f 9ebe e302 9e3e 50a0 47be
00000210: 12fc d13d ff2d 9b3f 1c62 173e 74a4 603f
00000220: 8f9c 3b3e 0566 49bd 993f 4d3e 7f89 ad3d
00000230: bcce cabd 5ddd 44bf 2181 823d 6d6b 1cbe
00000240: fceb 893c 0c8c 45bf 4cd1 62bc 25e9 f6be
00000250: 3ab3 f6bd ee15 91bd 5ac3 edbd ced4 2b3c
00000260: 9844 c6be 2c8a e2bf eb08 75be a176 6abf
00000270: cb40 60bd 609b 563f bb97 a4bd 50c1 193f
00000280: 5f6d b13e 9135 863e 88b4 d33d c367 213e
00000290: 1d8f 47bd e413 153e 0bff b63c df38 e43c
000002a0: f0e4 0b3f 4bdf 513e 943f cc3d 67fc 86be
000002b0: 385e 433e 5093 193d 0498 203e 6080 16be
000002c0: b0ba 16be 4cd4 fc3d 131e fe3d 741e 2a3e
000002d0: 9f1f cd3d 2e60 c1bd 4a2d 913c 8f91 09be
000002e0: 0e5d 62be 1c08 f3bd 05f1 99bc 77ec 253e
000002f0: f5d1 ac3c ec03 803d 7b9c 12ba 99fd 8b3d
00000300: a7e2 ca3d 1bcc 553d 05e1 cfbd 1423 b2bd
00000310: 1bda 91bc ea0a 983c be79 38bd c221 eabd
00000320: 3baa 71bb 7083 b13d 6d32 263c a7c2 8e3d
00000330: e328 75bd d337 08be dd20 123d 845f 9ebc
00000340: c269 d43d 10b7 aa3e e8d2 7d3d b794 5d3e
00000350: 4c56 25be f4d0 993b be23 27be 9ed2 afbd
00000360: 069f 043e d1ca 6b3e 3db2 af3c fd32 293e
00000370: adb4 403d 375f c43c d6e7 163e 1365 2c3d
00000380: 956a 743d 022b 54bc 76a2 903e 1ae4 ee3e
00000390: 66c3 02bf c0ea adbf 03a7 e13e aea1 853f
000003a0: 5fa2 523c 2e5d 0d3e 923f 853e 2dc9 72bd
000003b0: 52ad cfbc 5082 27be 6189 f1be ce7f b3bf
000003c0: 9456 85bd 1327 5cbe 2945 2cbe 35bb 803e
000003d0: 97a2 063c c5f9 7bbc 3f0e bb3d ff66 27be
000003e0: ba8e a23d a0dc 203e ad0d 2c3e abd4 2bbf
000003f0: d84e 3e3e 1bc5 963f 803b 623e e860 ddbf

encoder.2.bias f4 [16]
0.10264153 0.10499359 -0.060636103 0.22658162 0.06502742 0.37052175 -0.2609553 0.043962922
0.10005987 0.19429074 0.022310628 -0.00010113878 0.009835261 0.025083767 0.008171201 0.009915261
00000000: b935 d23d e106 d73d 905d 78bd 0305 683e
00000010: 192d 853d 07b5 bd3e ef9b 85be 7712 343d
00000020: 30ec cc3d 27f4 463e c7c4 b63c 781a d4b8
00000030: 1324 213c 797c cd3c 80e0 053c 9e73 223c

encoder.4.weight f4 [32, 16, 2, 2]
0.20830743 -0.074276075 -0.03795212 -0.17613485 -0.38115352 -0.102105506 0.020603066 0.20552588
0.14292008 0.18434477 -0.031362694 -0.09527068 -0.036197238 -0.1456173 0.007022526 0.090406865
-1.3962368 -0.7918115 0.08612108 0.25593054 -0.3437633 -0.16019484 0.0068540103 -0.05567525
-0.037753057 0.09650845 -0.05859881 -0.17090817 0.60674685 -0.2711333 -0.43600458 -0.44865328
0.1986183 0.12994874 0.008653223 0.018644212 0.33934155 0.030807165 -0.12996647 -0.3962275
0.7252951 0.5065238 0.53034216 -0.3930669 0.056445405 -0.097419865 -0.2851426 -0.25415888
1.4524366 1.0546767 -0.13511373 -0.667026 2.1733885 1.3706642 0.76167667 -0.8871959
1.1239873 0.95077366 -1.1539352 -1.0065105 -0.26686153 -0.1956627 0.071768746 -0.062236883
0.045826282 0.37684676 0.028540332 -0.04632856 0.046151076 -0.25050786 -0.0076091294 0.09245059
0.03413045 -0.33566415 0.25632718 0.25872666 -0.114033386 0.0346943 -0.069713935 0.020000583
-0.0385608 0.19855933 -0.006914328 0.0005340967 -0.17118795 0.10064712 0.17067347 0.18770336
-0.10508351 0.37252998 -0.22222503 0.07764546 0.05408651 -0.2213414 0.12592196 0.20581432
-0.1313051 -0.14470594 -0.014767463 0.11666145 0.1801042 -0.31359792 0.19193901 0.17458421
0.023472881 0.0018974384 -0.027081566 0.17601806 0.08373502 0.14940055 0.07586023 0.16627043
-0.2061096 -0.46321034 -0.07686886 0.12274196 -0.1900466 -0.5565207 0.040460795 0.061549928
0.040229276 -0.21148303 0.057926882 0.069114394 -0.12424923 -0.011328669 0.06617468 0.21099918
0.10951845 0.29254144 0.16491278 0.19818442 0.009283787 -0.1845489 0.3734187 0.38247016
0.16419898 0.25640303 0.010837064 0.06314763 0.01159367 0.31634286 0.0162724 0.40360788
-0.08500318 0.20520863 0.0116736395 0.22108379 -0.30436713 -0.37895653 -0.1978504 -0.18576543
-0.09792858 -0.20991157 -0.062125683 -0.2848468 0.36197874 0.056734286 0.45053712 -0.14545363
-0.33325052 -0.3342739 -0.35243088 -0.50980943 0.04108891 0.20138116 -0.186254 0.12065729
-0.0521362 -0.22019477 0.23609099 0.06393879 0.14853044 0.31552973 0.33776972 0.33475345
-0.22462569 0.057300027 0.116189785 0.031756587 0.13690184 -0.09291559 0.07905705 0.02721576
-0.0972648 0.24045123 -0.26276138 0.09103343 -0.18860596 -0.4399567 -0.20195816 -0.2608561
0.30489853 0.13536048 0.13672195 0.003982965 -0.04567881 -0.21952802 -0.24969569 -0.03136127
0.1855466 0.22422324 0.09584827 0.26443905 -0.0189974 -0.22444804 -0.034410134 0.09303099
-0.17810613 -0.07022826 -0.06354138 -0.05531551 -0.5075195 -0.2465051 -0.45870927 0.11590101
0.09345004 -0.0768354 0.045696 -0.076421656 0.48093152 0.24394642 0.5508033 -0.07896945
-0.029117636 -0.17281854 -0.2875844 -0.016545266 0.28357917 0.3671905 0.21367212 0.24906044
0.27353376 -0.54885054 0.22695585 -0.129707 -0.287172 -0.27240342 -0.1693452 -0.120119356
0.14455873 0.424728 0.103506155 -0.036524385 -0.026401855 0.3659396 0.4825078 0.33592698
0.30327088 0.33812103 0.51359147 0.051337074 0.28375313 0.13155563 0.27449584 0.33638325
00000000: 8b4e 553e 0e1e 98bd af73 1bbd b25c 34be
00000010: 8e26 c3be b11c d1bd c3c7 a83c 6075 523e
00000020: a459 123e e0c4 3c3e 2b76 00bd 461d c3bd
00000030: 8e43 14bd b41c 15be 381d e63b 3c27 b93d
00000040: e3b7 b2bf 29b4 4abf 4060 b03d 5409 833e
00000050: be01 b0be 1e0a 24be 9b97 e03b bb0b 64bd
00000060: f3a2 1abd 39a6 c53d 4e05 70bd 8d02 2fbe
00000070: c353 1b3f fcd1 8abe fe3b dfbe e2b5 e5be
00000080: 9862 4b3e 4811 053e 3fc6 0d3c bfbb 983c
00000090: 2dbe ad3e 4f5f fc3c ee15 05be 55de cabe
000000a0: f1ac 393f 8bab 013f 81c4 073f 1140 c9be
000000b0: 4c33 673d 1184 c7bd 36fe 91be 1d21 82be
000000c0: 71e9 b93f a5ff 863f 415b 0abe 37c2 2abf
000000d0: cc18 0b40 ed71 af3f 3efd 423f 451f 63bf
000000e0: d1de 8f3f e765 733f 26b4 93bf 56d5 80bf
000000f0: 13a2 88be ce5b 48be 7efb 923d 1aec 7ebd
00000100: 57b4 3b3d 0ff2 c03e 6acd e93c 04c3 3dbd
00000110: e908 3d3d 9142 80be 0156 f9bb bc56 bd3d
00000120: 5fcc 0b3d 2cdc abbe 513d 833e d277 843e
00000130: 568a e9bd 9c1b 0e3d 2ec6 8ebd 43d8 a33c
00000140: eef1 1dbd 2353 4b3e 9691 e2bb 9f02 0c3a
00000150: e54b 2fbe 1420 ce3d 07c5 2e3e 4f35 403e
00000160: 0636 d7bd 40bc be3e f58e 63be 9504 9f3d
00000170: d189 5d3d 52a7 62be b0f1 003e fdc0 523e
00000180: d874 06be cb2d 14be 3bf3 71bc 33ec ee3d
00000190: 3c6d 383e e88f a0be a98b 443e 34c6 323e
000001a0: 334a c03c 78b3 f83a 29da ddbc 143e 343e
000001b0: 447d ab3d 75fc 183e 9c5c 9b3d cc42 2a3e
000001c0: 650e 53be e829 edbe 6c6d 9dbd 2360 fb3d
000001d0: 939b 42be 2478 0ebf 38ba 253d c71b 7c3d
000001e0: 74c7 243d 028f 58be bd44 6d3d d98b 8d3d
000001f0: 6176 febd e29b 39bc 9786 873d 2b10 583e
00000200: 364b e03d fec7 953e e5de 283e dbf0 4a3e
00000210: 061b 183c 63fa 3cbe bc30 bf3e 21d3 c33e
00000220: c723 283e 4247 833e f18d 313c 8b53 813d
00000230: 60f3 3d3c b1f7 a13e b24d 853c b1a5 ce3e
00000240: 2616 aebd 3622 523e cb42 3f3c ca63 623e
00000250: 02d6 9bbe 9706 c2be 4c99 4abe 4b39 3ebe
00000260: c88e c8bd 0ff3 56be 8077 7ebd 71d7 91be
00000270: 4755 b93e 3662 683d cdac e63e ccf1 14be
00000280: d09f aabe f325 abbe d271 b4be df82 02bf
00000290: d84c 283d dd36 4e3e 5eb9 3ebe 2b1b f73d
000002a0: c58c 55bd bd7a 61be d6c1 713e 57f2 823d
000002b0: 5d18 183e 1d8d a13e 27f0 ac3e ce64 ab3e
000002c0: 4704 66be 6fb3 6a3d e9f4 ed3d 3213 023d
000002d0: ff2f 0c3e 874a bebd aae8 a13d 96f3 de3c
000002e0: c432 c7bd d938 763e a988 86be bc6f ba3d
000002f0: ec21 41be 0142 e1be 1fce 4ebe ee8e 85be
00000300: a91b 9c3e f09b 0a3e d700 0c3e 8883 823b
00000310: b419 3bbd f4cb 60be 3ab0 7fbe ad74 00bd
00000320: eeff 3d3e c79a 653e 194c c43d 8e64 873e
00000330: 6fa0 9bbc b5d5 65be a4f1 0cbd 0887 be3d
00000340: 7461 36be d5d3 8fbd fc21 82bd 8492 62bd
00000350: ccec 01bf d56b 7cbe f1db eabe 825d ed3d
00000360: bc62 bf3d e15b 9dbd bb2b 3b3d f582 9cbd
00000370: a83c f63e 17cd 793e 7201 0d3f bcba a1bd
00000380: 1c88 eebc 58f7 30be 433e 93be f089 87bc
00000390: 4a31 913e 6500 bc3e ddcc 5a3e b309 7f3e
000003a0: 9e0c 8c3e 7881 0cbf 1d67 683e e9d1 04be
000003b0: 3508 93be 7678 8bbe d468 2dbe 2301 f6bd
000003c0: 3407 143e f375 d93e 09fb d33d 989a 15bd
000003d0: b448 d8bc 6f5c bb3e 430b f73e 9ffe ab3e
000003e0: 5246 9b3e 331e ad3e bb7a 033f d346 523d
000003f0: 1748 913e 85b6 063e b88a 8c3e 6d3a ac3e

encoder.4.bias f4 [32]
0.06502565 -0.04429439 0.20080261 0.057192415 0.04273301 -0.014964855 -0.053375624 -0.07010079
-0.08846975 0.24862145 0.22223677 0.047739565 0.066588566 0.17818284 0.12235565 0.2393803
-0.24228916 0.2705016 0.027354749 0.12288618 0.12005938 0.17104955 -1.069101 -0.039896898
0.049421217 -0.19374044 -0.18791546 0.14560124 0.14401175 0.09895855 -0.06335511 -0.0068189967
00000000: 2b2c 853d 096e 35bd 339f 4d3e 9842 6a3d
00000010: cf08 2f3d 272f 75bc 66a0 5abd 0191 8fbd
00000020: a12f b5bd 9f96 7e3e 0992 633e 908a 433d
00000030: 965f 883d 9075 363e 9995 fa3d 1c20 753e
00000040: a61a 78be 307f 8a3e 1117 e03c c0ab fb3d
00000050: b1e1 f53d 9d27 2f3e 4dd8 88bf ee6a 23bd
00000060: e76d 4a3d e563 46be e96c 40be 7e18 153e
00000070: d177 133e c8aa ca3d 53c0 81bd e471 dfbb

decoder.0.weight f4 [32, 16, 2, 2]
-0.18711905 -0.0030845064 -0.17498927 -0.21387099 0.68451416 0.78912395 0.9039647 1.0238571
0.055943348 -0.0573797 -0.020636361 -0.1839332 0.07484966 0.009229208 0.25096962 0.0353786
-0.5112654 0.64176375 0.5351753 0.79567105 -5.0563e-41 0.5430506 0.64612275 1.3220478
0.081330635 -0.10940412 0.054344878 -0.026710657 -0.18742155 -0.30980423 -0.011909373 -0.12440972
0.01637079 0.124474436 -0.02940557 0.12218338 -0.035170667 0.41790617 0.29267463 0.055718288
-0.19145021 -0.22163197 -0.27175412 -0.3761501 0.2529752 0.31270257 0.15386708 0.47255895
0.089313656 0.2476145 -0.13904452 0.08787711 0.8049186 1.3586841 1.6547087 0.94781655
0.94003254 0.67735565 0.9569342 -4.6631e-40 0.3560994 -0.20970419 0.2624878 0.217208
0.20352243 -0.079076454 0.0027640308 0.09357866 -0.15912484 0.17141238 -0.13581564 0.022564625
0.005943774 0.13694538 0.16944148 0.017211396 -0.08362104 -0.4569097 0.15811606 0.03257794
-0.14659418 -0.53648037 0.07347171 0.1513208 -2.327678e-16 -0.12593357 -0.42758995 0.06359022
0.042051107 0.028250268 0.0063492903 -0.0043408666 0.005539439 -0.235966 0.18556036 0.13381696
0.024995908 -0.23950289 0.03807951 0.27777642 -0.077784896 -0.008312151 -0.2320549 0.118823096
-0.0455763 0.009009747 0.23658612 0.35259002 -0.09431848 -0.067616254 0.1542912 0.16026492
-0.008026693 0.24642071 0.088295296 0.1490011 0.003225908 0.06551925 -0.07975209 -0.05994324
-0.015755953 0.1644488 -0.095978655 1.623847e-39 -0.13353859 0.258703 -0.019076569 0.05483002
0.25992754 0.26120076 0.2907195 0.31249675 -0.22860645 -0.322809 -0.08429124 -0.21805723
0.27657664 0.31045774 0.2390652 0.31942284 -0.031258386 0.05163934 -0.056890395 0.061703544
-0.658149 -0.17143157 -0.035276774 -0.068452306 -1.2163448e-23 -0.12172022 -0.25439587 -0.066116065
0.12786004 0.5442288 0.42195538 0.40890706 0.11725952 -0.3645635 -0.5048133 -0.63061965
0.06787912 0.0462007 0.08745357 0.10662478 -0.2093384 -0.18883784 -0.18130668 -0.043327086
-0.13010469 -0.16792093 -0.12092376 -0.1514852 -0.0073216865 0.015017642 -0.036934547 -0.061222002
0.02235912 0.03626088 0.00895683 -0.12049525 -0.0018272101 -0.24334662 -0.4554824 -0.4275219
-0.32084513 -0.1268973 -0.1678419 1.011459e-39 -0.15102708 0.045586467 0.06774736 0.12633716
0.13511126 0.045432385 0.12201831 0.048139866 0.18942004 -0.08299966 0.1511034 0.510496
0.118569605 0.20555955 0.09401489 0.20586796 0.39698875 0.21831904 0.29302996 0.37662458
-0.6617637 0.55439276 0.2370352 0.24424449 5.20486e-40 0.29776976 -0.07990646 -0.23383369
0.081121236 0.4275338 0.086948566 0.0015246584 -0.05925985 0.5394078 0.10600997 0.28285104
0.10637129 0.15815979 0.0042738775 0.21532696 -0.29851174 0.14920378 0.0051852153 0.10439672
0.10446651 0.14660896 0.13445514 0.107586935 -0.05000611 -0.03344643 -0.0011946583 0.21984039
-0.0056274533 0.061044637 0.1413492 -0.12547779 0.15090492 -0.2885103 0.2786683 0.49340558
0.18414374 0.059374213 0.12587678 -5.98022e-40 0.10846407 0.15001251 0.30780387 0.27184558
00000000: 239c 3fbe 6e25 4abb 6330 33be ff00 5bbe
00000010: 523c 2f3f 0704 4a3f 3b6a 673f c00d 833f
00000020: da24 653d fa06 6bbd 960d a9bc fc58 3cbe
00000030: c74a 993d 1b36 173c 177f 803e 27e9 103d
00000040: 4ae2 02bf a14a 243f 4001 093f 19b1 4b3f
00000050: f38c 0080 5d05 0b3f 4d68 253f dd38 a93f
00000060: ad90 a63d 440f e0bd bc98 5e3d 4fd0 dabc
00000070: 6feb 3fbe a99e 9ebe 881f 43bc 86ca febd
00000080: 091c 863c 74ec fe3d f3e3 f0bc 483b fa3d
00000090: 1e0f 10bd ccf7 d53e 73d9 953e dc38 643d
000000a0: 860b 44be 7ef3 62be 5b23 8bbe bf96 c0be
000000b0: f785 813e 8d1a a03e 558f 1d3e 3ff3 f13e
000000c0: 14ea b63d a88e 7d3e b061 0ebe eaf8 b33d
000000d0: 250f 4e3f 5ce9 ad3f 7fcd d33f 1ba4 723f
000000e0: f9a5 703f 2e67 2d3f a4f9 743f e213 0580
000000f0: a952 b63e b2bc 56be cd64 863e c66b 5e3e
00000100: 2f68 503e d6f2 a1bd be24 353b 2ba6 bf3d
00000110: 9ff1 22be ba86 2f3e 4113 0bbe 73d9 b83c
00000120: fdc3 c23b 693b 0c3e 1182 2d3e eafe 8c3c
00000130: 8241 abbd 11f0 e9be 2de9 213e 7270 053d
00000140: c91c 16be c756 09bf 5678 963d d7f3 1a3e
00000150: 772e 86a5 bbf4 00be 12ed dabe 973b 823d
00000160: c83d 2c3d 1b6d e73c b50d d03b d43d 8ebb
00000170: 2f84 b53b 12a1 71be 8903 3e3e 5007 093e
00000180: 38c4 cc3c 3f40 75be 43f9 1b3d b638 8e3e
00000190: b04d 9fbd b02f 08bc cd9f 6dbe 8659 f33d
000001a0: 37ae 3abd 9e9d 133c a243 723e ae86 b43e
000001b0: 0c2a c1bd 647a 8abd 83fe 1d3e 7d1c 243e
000001c0: 6482 03bc b655 7c3e 2ad4 b43d bf93 183e
000001d0: c169 533b f52e 863d 1055 a3bd 0b87 75bd
000001e0: a112 81bc 4465 283e 7590 c4bd a0ae 1100
000001f0: 57be 08be b874 843e 7746 9cbc 7195 603d
00000200: 3915 853e 1bbc 853e 30d9 943e 93ff 9f3e
00000210: cf17 6abe 3947 a5be e3a0 acbd 654a 5fbe
00000220: 749b 8d3e 51f4 9e3e 82cd 743e 648b a33e
00000230: cb08 00bd c683 533d e705 69bd dbbc 7c3d
00000240: 747c 28bf c28b 2fbe 617e 10bd b930 8cbd
00000250: 7a46 6b99 7348 f9bd 2d40 82be dc67 87bd
00000260: beed 023e 9452 0b3f 890a d83e 445c d13e
00000270: c225 f03d 11a8 babe 723b 01bf 4a70 21bf
00000280: 3504 8b3d f23c 3d3d db1a b33d 185e da3d
00000290: ce5c 56be b55e 41be 75a8 39be be77 31bd
000002a0: 2a3a 05be 77f3 2bbe e0a6 f7bd f01e 1bbe
000002b0: c2ea efbb 8e0c 763c ae48 17bd ecc3 7abd
000002c0: 792a b73c 4a86 143d abbf 123c 37c6 f6bd
000002d0: ff7e efba db2f 79be fd34 e9be 27e4 dabe
000002e0: d045 a4be 5ef1 01be bfde 2bbe 8903 0b00
000002f0: d8a6 1abe e0b8 3a3d 21bf 8a3d 875e 013e
00000300: 9b5a 0a3e 4f17 3a3d bce4 f93d 4f2e 453d
00000310: 54f7 413e bafb a9bd daba 1a3e deaf 023f
00000320: 9fd4 f23d 347e 523e e18a c03d 0dcf 523e
00000330: 1c42 cb3e 078f 5f3e 0608 963e f0d4 c03e
00000340: 5969 29bf afec 0d3f 5bb9 723e 3a1b 7a3e
00000350: e7aa 0500 4775 983e 00a6 a3bd 1972 6fbe
00000360: e422 a63d b6e5 da3e 1712 b23d 0cd7 c73a
00000370: 75ba 72bd a116 0a3f c11b d93d dad1 903e
00000380: 31d9 d93d a4f4 213e e20b 8c3b ac7e 5c3e
00000390: 88d6 98be e0c8 183e bde8 a93b f3cd d53d
000003a0: 8af2 d53d a920 163e 9cae 093e 8a56 dc3d
000003b0: 35d3 4cbd 20ff 08bd 1596 9cba d71d 613e
000003c0: 8066 b8bb f109 7a3d d8bd 103e 407d 00be
000003d0: d286 1a3e 9fb7 93be 9dad 8e3e a89f fc3e
000003e0: 2d90 3c3e 6032 733d d8e5 003e 0b83 0680
000003f0: 6922 de3d e19c 193e 7898 9d3e 582f 8b3e

decoder.0.bias f4 [16]
0.19969043 -0.108374566 0.27824083 0.33238682 0.21584068 -0.042093474 0.14035477 0.18004714
0.3263512 0.08076579 -0.030047674 0.19035016 0.14117338 0.015506905 -0.043270547 -0.01073479
00000000: a67b 4c3e 7cf3 ddbd 9575 8e3e 9b2e aa3e
00000010: 5705 5d3e 356a 2cbd 29b9 0f3e 475e 383e
00000020: 8117 a73e 8968 a53d 8a26 f6bc 27eb 423e
00000030: c18f 103e ac10 7e3c 753c 31bd f9e0 2fbc

decoder.2.weight f4 [16, 8, 2, 2]
0.10146532 0.0589003 0.08970413 0.054792043 0.13481262 0.26515275 0.4376751 0.42442626
-0.15682884 4.11521e-40 6.05238e-40 -6.09294e-40 -0.122578286 -5.92861e-40 0.21663457 0.056134902
3.22129e-40 -0.19959947 -0.37571552 -2.59996e-40 -0.09576111 -0.14453386 3.24866e-40 1.83604e-40
-0.27925777 -0.10462889 -0.003807962 -2.8702598e-16 0.11017429 -0.06878429 0.20225246 -0.13883798
0.35724637 0.29341426 0.4038916 0.72874486 0.054538365 -0.09560471 -0.015742542 0.055871047
0.6050006 8.39732e-40 -6.05895e-40 1.18389e-40 0.07662901 -2.56921e-40 0.3726106 0.2739555
3.7601e-40 0.62621224 0.5744927 -3.42832e-40 0.22680758 0.25293347 1.345897e-39 -2.32218e-40
0.3139737 0.23135361 0.20272388 -1.1588e-39 0.1323819 -0.06318678 0.08122544 0.104376435
-0.07911638 -0.00053716183 0.16235346 0.069978334 0.5611615 0.4193139 0.12094424 0.23037969
-0.4378657 1.188499e-39 -2.1001e-40 -4.91731e-40 0.14213274 3.07551e-40 -0.54182446 -0.11684108
-1.970091e-39 -0.2892279 0.051557925 1.01298e-40 0.13672395 0.15861753 -5.89252e-40 -4.88313e-40
0.19859524 0.07695302 -0.14964293 -8.551475e-17 0.11516688 0.0658225 -0.30505672 0.042144407
0.0032061348 -0.22036912 -0.06843049 -0.22474545 -0.13718869 0.1416794 -0.11481249 0.18045245
0.23639637 -2.23552e-40 6.05054e-40 1.9922e-41 -0.21321638 2.73482e-40 -0.25450793 0.18820743
1.9506e-41 -0.22090808 0.095079124 -2.04476e-40 -0.27333826 0.14731881 -3.51531e-40 -3.72004e-40
-0.11401652 0.119603656 -0.08758211 -8.756053e-15 0.23085456 0.49988136 0.24228571 0.45012888
-0.8246567 -0.69741744 -1.0965542 -2.9751103 0.5123417 0.41328698 0.9109411 1.3300341
-1.2527819 1.3602e-41 -1.164193e-39 -4.6488e-40 1.2752261 -1.208085e-39 1.2391741 1.465687
1.594689e-39 -1.6551391 -2.423674 -4.67616e-40 1.417606 1.2773439 4.3128e-40 -6.21026e-40
0.15065831 0.3906907 0.14561312 6.049e-41 0.42713 0.14168334 0.75245583 0.9967274
-0.23325664 -0.47885615 -0.5682628 -1.3431578 -0.032221872 0.21909347 0.4164464 0.39038906
-0.88691753 -3.81246e-40 -6.0141e-40 5.091e-41 0.82766354 1.476056e-39 1.2306505 1.1992222
5.77753e-40 -1.080188 -1.0279338 -2.3053e-40 0.8785881 1.0424571 -2.8564e-40 6.0764e-40
0.056307852 0.4832201 0.17983814 7.25555e-40 0.48947468 0.6501812 0.42764348 0.41414568
0.11188067 -0.0046095364 0.03348965 -0.2631081 0.36141428 0.46423495 0.55657226 0.55173224
-0.8532166 -2.37726e-40 1.342119e-39 -7.08774e-40 0.35711884 7.63775e-40 0.21957368 -0.2897092
1.165386e-39 -0.79560834 -0.5815892 2.30275e-40 0.32094464 0.24675974 6.00112e-40 8.36123e-40
-0.07724924 -0.17140356 -0.077530585 -1.08438e-40 -0.06747699 -0.09373137 0.07543616 -0.1081633
-0.061960842 -0.054432016 -0.017825643 -0.10865704 -0.5443321 -0.55901074 -0.58277303 -0.7652347
-0.6431783 -8.39494e-40 1.21966e-40 -2.22387e-40 0.016083768 -3.90945e-40 -0.26178995 0.19363713
-2.61136e-40 -0.971004 -0.9941667 5.90703e-40 -0.03151183 0.13132538 -8.29507e-40 -7.0124e-41
0.36895436 0.36640853 0.32835832 -1.263053e-39 0.045771882 0.1158545 0.03061494 -0.10064504
00000000: 0dcd cf3d 7141 713d cdb6 b73d 9f6d 603d
00000010: 520c 0a3e 1ac2 873e f316 e03e 664e d93e
00000020: bd97 20be 277b 0400 2897 0600 77a2 0680
00000030: 530a fbbd a874 0680 74d5 5d3e b6ed 653d
00000040: f781 0300 ce63 4cbe c95d c0be c3d4 0280
00000050: 671e c4bd af00 14be 9889 0300 d0ff 0100
00000060: e0fa 8ebe ac47 d6bd 008f 79bb 8f75 a5a5
00000070: 0fa3 e13d c7de 8cbd 451b 4f3e 8b2b 0ebe
00000080: ffe8 b63e 653a 963e e1ca ce3e 068f 3a3f
00000090: 9f63 5f3d 67cc c3bd 81f6 80bc 0ad9 643d
000000a0: 52e1 1a3f d524 0900 fd98 0680 054a 0100
000000b0: acef 9c3d 31cc 0280 d1c6 be3e e543 8c3e
000000c0: 2a18 0400 724f 203f f411 133f adbb 0380
000000d0: 3f40 683e 7f80 813e d0a7 0e00 5487 0280
000000e0: 29c1 a03e f6e7 6c3e d996 4f3e 439e 0c80
000000f0: 1f8f 073e 1268 81bd 8659 a63d 50c3 d53d
00000100: c507 a2bd 52d0 0cba fc3f 263e cd50 8f3d
00000110: 48a8 0f3f 50b0 d63e 9db1 f73d a7e8 6b3e
00000120: ef2f e0be 0df1 0c00 6c49 0280 bf5a 0580
00000130: 3f8b 113e 5459 0300 02b5 0abf 604a efbd
00000140: d073 1580 ae15 94be 672e 533d 611a 0100
00000150: 5d01 0c3e a26c 223e 986a 0680 3851 0580
00000160: 8d5c 4b3e 8c99 9d3d ff3b 19be 002f c5a4
00000170: 9ddc eb3d f2cd 863d 6530 9cbe 9d9f 2c3d
00000180: 041e 523b 71a8 61be 4925 8cbd ac23 66be
00000190: 317b 0cbe 6814 113e d022 ebbd 87c8 383e
000001a0: e411 723e 2c6f 0280 a596 0600 8937 0000
000001b0: 6555 5abe 5bfa 0200 dd4e 82be 73b9 403e
000001c0: 6036 0000 ba35 62be d8b8 c23d ff39 0280
000001d0: fef2 8bbe beda 163e edd3 0380 ff0c 0480
000001e0: 7e81 e9bd c3f2 f43d 405e b3bd 2bbc 1da8
000001f0: 2365 6c3e 73f0 ff3e bf19 783e 4b77 e63e
00000200: b41c 53bf f389 32bf e35b 8cbf 3568 3ec0
00000210: d328 033f 5a9a d33e 7033 693f 8f3e aa3f
00000220: 285b a0bf eb25 0000 4cad 0c80 e50f 0580
00000230: 9c3a a33f a627 0d80 429d 9e3f a29b bb3f
00000240: 585d 1100 99db d3bf 7a1d 1bc0 8617 0580
00000250: 1d74 b53f 0180 a33f 3cb2 0400 2bc3 0680
00000260: 2c46 1a3e 9d08 c83e 9b1b 153e 9fa8 0000
00000270: c9b0 da3e 7015 113e f2a0 403f 8729 7f3f
00000280: d4da 6ebe a22c f5be ac79 11bf 98ec abbf
00000290: 15fb 03bd 0a5a 603e 7638 d53e 13e1 c73e
000002a0: 070d 63bf c226 0480 7d8c 0680 eb8d 0000
000002b0: c2e1 533f a512 1000 f585 9d3f 1d80 993f
000002c0: 8a4a 0600 9a43 8abf 5693 83bf a082 0280
000002d0: 26eb 603f 3c6f 853f 401c 0380 da9d 0600
000002e0: 10a3 663d a068 f73e 7d27 383e 8de6 0700
000002f0: 6d9c fa3e 4672 263f 16f4 da3e e70a d43e
00000300: b121 e53d 980b 97bb 712c 093d 1bb6 86be
00000310: 4b0b b93e 34b0 ed3e 857b 0e3f 533e 0d3f
00000320: 676c 5abf af96 0280 489d 0e00 c6b7 0780
00000330: 48d8 b63e 1851 0800 ecd7 603e c454 94be
00000340: 9fb0 0c00 fdac 4bbf 08e3 14bf ea81 0200
00000350: db52 a43e 96ae 7c3e de88 0600 c51a 0900
00000360: d934 9ebd 6a84 2fbe 5bc8 9ebd 482e 0180
00000370: 6031 8abd 3cf6 bfbd 467e 9a3d b884 ddbd
00000380: a7ca 7dbd 1bf4 5ebd 1507 92bc 9587 debd
00000390: 5959 0bbf 541b 0fbf 9d30 15bf 6ce6 43bf
000003a0: 55a7 24bf 2b24 0980 fe53 0100 ed6b 0280
000003b0: 1bc2 833c cc41 0480 5509 86be d048 463e
000003c0: f1d7 0280 b893 78bf b581 7ebf a46e 0600
000003d0: 8c12 01bd 297a 063e 5408 0980 7ac3 0080
000003e0: 96e7 bc3e e699 bb3e 951e a83e e1c0 0d80
000003f0: 4c7b 3b3d 2045 ed3d 2fcc fa3c fd1e cebd

decoder.2.bias f4 [8]
0.044477414 0.32662702 -0.33285585 -0.09313154 -0.24284601 -0.027732424 -0.07396345 0.054337934
00000000: f32d 363d a83b a73e 156c aabe c0bb bebd
00000010: a0ac 78be 1c2f e3bc 267a 97bd 7491 5e3d

decoder.4.weight f4 [8, 3, 2, 2]
0.74351966 0.7248223 0.73722696 0.71042126 0.68931144 0.67437613 0.6835717 0.66083395
0.65459096 0.6387417 0.6531098 0.6292685 -0.7885639 -0.60619706 -0.7125165 -0.520311
-0.3410412 -0.1613642 -0.26521173 -0.073527396 0.063434534 0.24018055 0.14008015 0.33155307
0.989452 1.0212649 0.9637357 0.9541903 0.9303923 0.95478183 1.0196639 1.0080875
0.881243 0.87401557 1.0491121 0.89505285 -0.5341514 -0.28103006 -0.44555518 -0.1694379
-0.96262 -0.7145138 -0.8548029 -0.5840352 -1.290488 -1.042405 -1.1824355 -0.9110781
1.3416303 1.3643261 1.4313148 1.4137653 1.3430058 1.3517013 1.386385 1.4818496
1.2520275 1.3379623 1.353405 1.3514223 -0.60408735 -0.75478363 -0.89813197 -0.7195746
-0.6357605 -0.7684209 -1.0651569 -0.71569014 -0.7512602 -0.8800426 -0.83792704 -0.78071374
-0.15558657 0.2082385 -0.019834232 0.3724982 -0.58271116 -0.21905042 -0.42912808 -0.03491913
-0.9133209 -0.5656956 -0.76935387 -0.3874093 0.12352122 -0.27642983 -0.03665792 -0.46054956
-0.011012859 -0.4093431 -0.18046096 -0.60341406 -0.11308057 -0.49716967 -0.27968967 -0.6952048
00000000: 4e57 3e3f f48d 393f e8ba 3c3f 2bde 353f
00000010: b776 303f eaa3 2c3f 8efe 2e3f 6a2c 293f
00000020: 4693 273f 9384 233f 3432 273f be17 213f
00000030: 53df 49bf bb2f 1bbf 7b67 36bf 1a33 05bf
00000040: f49c aebe a83c 25be d5c9 87be 8895 96bd
00000050: f7e9 813d e4f1 753e 2c71 0f3e 53c1 a93e
00000060: ba4c 7d3f cfb8 823f 62b7 763f d145 743f
00000070: 312e 6e3f 956c 743f 5984 823f 0309 813f
00000080: 2499 613f 7cbf 5f3f 4e49 863f 2f22 653f
00000090: 25be 08bf 2ce3 8fbe cf1f e4be 2181 2dbe
000000a0: 446e 76bf 60ea 36bf 5dd4 5abf 5583 15bf
000000b0: b62e a5bf 876d 85bf 0c5a 97bf 6a3c 69bf
000000c0: 8bba ab3f 3da2 ae3f 5335 b73f 43f6 b43f
000000d0: 9de7 ab3f 8c04 ad3f 1075 b13f 3fad bd3f
000000e0: 7042 a03f 5942 ab3f 603c ad3f 68fb ac3f
000000f0: 78a5 1abf 8039 41bf faeb 65bf 0a36 38bf
00000100: 33c1 22bf 3bb7 44bf 1057 88bf 7837 37bf
00000110: 9752 40bf 794a 61bf 6382 56bf dbdc 47bf
00000120: 1652 1fbe 793c 553e 667b a2bc 16b8 be3e
00000130: 8f2c 15bf c14e 60be adb6 dbbe 5d07 0fbd
00000140: 66cf 69bf 6dd1 10bf 60f4 44bf 835a c6be
00000150: b2f8 fc3d 3688 8dbe 9d26 16bd 27cd ebbe
00000160: 476f 34bc 6b95 d1be c2ca 38be 5879 1abf
00000170: c996 e7bd 068d febe 7c33 8fbe f1f8 31bf

decoder.4.bias f4 [3]
0.4721168 0.30929133 0.04216934
00000000: 4bb9 f13e 6f5b 9e3e c2b9 2c3d
