ae_weights/n_52.pth (torch, 98177 bytes, 12 tensors)

encoder.0.weight f4 [8, 3, 8, 8]
0	0x3e376b3d	0.17912002
1	0x3e2628ad	0.16226454
2	0x3e310ce7	0.17290078
3	0x3daaa28f	0.08331787
4	0x3d41c2c5	0.047304887
5	0x3d6a5f35	0.057219703
6	0x3e4275f3	0.18990307
7	0x3e248c65	0.16069181
8	0x3e05262d	0.13002844
9	0x3ddc0b32	0.10744323
10	0x3d8e2492	0.06940569
11	0xbcab730c	-0.020928882
12	0xbdb3d45b	-0.08780738
13	0xbd0e6588	-0.034764796
14	0x3e0750aa	0.13214365
15	0x3e1e69b1	0.15470006
16	0x3d732a3d	0.059366453
17	0xbc18d1ac	-0.009327333
18	0xbddd255d	-0.10798142
19	0xbe67f322	-0.22651342
20	0xbe61db27	-0.22056256
21	0xbd888686	-0.06666283
22	0x3d099ba6	0.033595704
23	0x3e128f4f	0.1431248
24	0xbd4a7dca	-0.049436368
25	0xbe3765fd	-0.17909999
26	0xbe62c991	-0.22147204
27	0xbe905c6f	-0.2819552
28	0xbe78d5dc	-0.24300331
29	0xbe22dd21	-0.15904666
30	0xbc907038	-0.017631635
31	0x3d06b0fa	0.03288362
32	0xbe07c9f9	-0.1326064
33	0xbe751f52	-0.23937729
34	0xbe9616ef	-0.29314372
35	0xbe9656aa	-0.29362994
36	0xbe8306a8	-0.25591016
37	0xbddef287	-0.10886102
38	0xbd613f3a	-0.05499194
39	0x3d555a98	0.05208835
40	0xbba02bae	-0.0048880195
41	0xbe4d04e0	-0.20021391
42	0xbe975d0e	-0.29563183
43	0xbe54b091	-0.2077048
44	0xbd71da09	-0.059045825
45	0x3d1b7531	0.03795356
46	0x3d618fa0	0.055068612
47	0x3dbae789	0.09126193
48	0x3caeec40	0.021352887
49	0xbd5b1ad7	-0.053492393
50	0xbdca78b7	-0.09886306
51	0xbde84f49	-0.113432474
52	0x3dbeee27	0.09322768
53	0x3e4157ec	0.18881196
54	0x3e4c2fb6	0.19940075
55	0x3dcf30fa	0.101167634
56	0x3e28b9b6	0.16477093
57	0x3da15a1a	0.07878514
58	0x3dc4b239	0.09604306
59	0x3dfd7613	0.123760365
60	0x3e525e8e	0.20543882
61	0x3e767c51	0.2407086
62	0x3e33aa12	0.17545345
63	0x3e0869b7	0.13321577
64	0x3cf196bd	0.029490823
65	0x3e0589ec	0.13040894
66	0x3da720b5	0.08160535
67	0x3e036d5a	0.12834683
68	0x3d9a0555	0.07520548
69	0x3d8e0372	0.06934251
70	0x3d221d1c	0.039578542
71	0x3d5795af	0.052632984
72	0x3cef31e3	0.029198593
73	0x3d1b13f9	0.037860844
74	0x3d75fbdc	0.060054645
75	0x3e0425b4	0.12905008
76	0x3e0efb3b	0.13963024
77	0xbc8cfd5f	-0.01721066
78	0xbcb751c7	-0.022377862
79	0x3d0cc498	0.034367174
80	0x3e030a6e	0.12796947
81	0x3e2a26ae	0.16616318
82	0x3e0168a0	0.12637568
83	0x3e2fdbd7	0.17173706
84	0x3db47984	0.0881224
85	0x3d3aaa0e	0.045572333
86	0xbd5e495d	-0.054269183
87	0x3c244241	0.010025562
88	0x3e1468c9	0.14493097
89	0x3e140d1c	0.14458126
90	0x3dac0c0f	0.084007375
91	0x3d22160e	0.039571814
92	0xbd1975f3	-0.037466
93	0xbdc7bad9	-0.09752435
94	0xbdc04715	-0.09388558
95	0x3c6aa942	0.014322581
96	0x3e802b39	0.25032976
97	0x3e00d2c9	0.12580408
98	0x3db95092	0.09048571
99	0xbd4995b6	-0.04921504
100	0xbe2bc809	-0.16775526
101	0xbe994521	-0.29935554
102	0xbe3f7b99	-0.18699493
103	0xbddbc3ca	-0.10730703
104	0x3e26faae	0.16306564
105	0x3e81212f	0.2522063
106	0x3e30bb18	0.1725887
107	0xbd4549f8	-0.048166245
108	0xbe7c507b	-0.24640076
109	0xbecf1a8f	-0.4044995
110	0xbeacd1ed	-0.3375391
111	0xbe323692	-0.1740363
112	0x3e76c159	0.24097194
113	0x3e8c0204	0.27345288
114	0x3e201df0	0.1563642
115	0xbd275208	-0.040849715
116	0xbea21ce6	-0.31662673
117	0xbece6c20	-0.40316868
118	0xbea59070	-0.3233676
119	0xbe314977	-0.17313181
120	0x3e550406	0.20802316
121	0x3e317cae	0.17332718
122	0x3dc35272	0.095372096
123	0x3d543c63	0.0518154
124	0xbe21f2b3	-0.15815239
125	0xbe53c046	-0.20678815
126	0xbe44f438	-0.19233787
127	0xbd2149fb	-0.039377194
128	0xbe60f2ea	-0.21967664
129	0xbe78bf62	-0.24291757
130	0xbe59f772	-0.21285799
131	0xbe3253d8	-0.17414796
132	0xbdc22570	-0.09479797
133	0xbe347d5b	-0.17625944
134	0xbe71c206	-0.2360917
135	0xbe609d48	-0.21934998
136	0xbe46f753	-0.19430284
137	0xbe64d214	-0.22345763
138	0xbdf6f0ce	-0.120576486
139	0xbe21554b	-0.15755193
140	0xbd86b824	-0.06578091
141	0xbd4d2460	-0.050083518
142	0xbe273632	-0.16329268
143	0xbe54a26a	-0.20765081
144	0xbe43c340	-0.1911745
145	0xbdb99304	-0.09061244
146	0xbd04aef0	-0.032393396
147	0x3bb6ae8f	0.005575008
148	0x3e1309e9	0.14359249
149	0x3da70133	0.081545256
150	0x3d0665b2	0.032811828
151	0xbe277ed2	-0.16356972
152	0xbdba2407	-0.09088903
153	0x3c22dbe6	0.009940123
154	0x3d1dac00	0.03849411
155	0x3e7798be	0.2417936
156	0x3e6a9678	0.22908962
157	0x3e7da7ef	0.24771093
158	0x3e0eb23a	0.13935176
159	0xbd70fbef	-0.058834013
160	0xbddf083b	-0.10890242
161	0x3dafb203	0.08578875
162	0x3e1487e9	0.1450497
163	0x3e948fe8	0.29016042
164	0x3ea8abf1	0.3294368
165	0x3ea65958	0.3249004
166	0x3eb733e3	0.35781774
167	0x3e09fb9b	0.13474886
168	0xbe1c6b4d	-0.15275307
169	0x3bbdfc83	0.005797924
170	0x3dc5a513	0.09650626
171	0x3e83306e	0.25622886
172	0x3e9df068	0.30847478
173	0x3edfd132	0.4371429
174	0x3e884234	0.2661301
175	0x3e26f733	0.16305237
176	0xbe999365	-0.29995266
177	0xbe7972a0	-0.24360132
178	0xbd77907c	-0.060440525
179	0x3e00175f	0.12508915
180	0x3e5961dd	0.21228738
181	0x3e872759	0.26397207
182	0x3e36e342	0.1786013
183	0x3da37515	0.07981316
184	0xbeb757e6	-0.3580925
185	0xbeaf5775	-0.34246412
186	0xbe459b11	-0.19297434
187	0xbd95c02d	-0.07312045
188	0xbd221bf7	-0.03957745
189	0x3b97e5b9	0.0046355394
190	0xbce5d410	-0.02805522
191	0xbdd16f1e	-0.10226272
192	0x3e1cf0f5	0.15326293
193	0x3d34ed8e	0.044171862
194	0x3ba43794	0.0050115082
195	0x3dda433c	0.10657355
196	0x3ce73368	0.028222755
197	0x3da6b3d8	0.08139771
198	0x3db9293f	0.0904107
199	0x3e38b258	0.18036783
200	0x3c22a9f0	0.009928212
201	0xbd9b3cf9	-0.07579989
202	0xbde90c22	-0.11379267
203	0xbdd37ed2	-0.103269234
204	0xbdbae59b	-0.09125825
205	0xbd17bfbf	-0.037048098
206	0xbdbd842b	-0.09253725
207	0x3cfd3050	0.030906826
208	0x3c5eb48c	0.01359285
209	0xbe08e4fb	-0.13368599
210	0xbdc3e42a	-0.09565003
211	0xbdf12c2f	-0.117760055
212	0xbdfed913	-0.12443747
213	0xbdc29173	-0.095003985
214	0xbddea823	-0.10871913
215	0x3d6578c8	0.05602339
216	0x3da00096	0.07812612
217	0xbd8a723a	-0.06760068
218	0xbdf72a8a	-0.120686606
219	0xbd6518b9	-0.05593178
220	0xbd81bd69	-0.06334955
221	0xbde16bd7	-0.11006897
222	0xbd109c36	-0.035305224
223	0x3cbb4974	0.022862174
224	0x3e0051d9	0.12531222
225	0xbcc30bc7	-0.023809327
226	0xbd277e32	-0.040891834
227	0xbd7596d3	-0.05995829
228	0xbde51b65	-0.11186866
229	0xbe030c0e	-0.12797567
230	0xbdc2f20d	-0.09518824
231	0xbd6baeac	-0.057539627
232	0x3da35306	0.0797482
233	0xbe1c9512	-0.15291241
234	0xbde1eaba	-0.11031099
235	0xbe07b8d1	-0.13254096
236	0xbdc60cf3	-0.096704386
237	0xbde2946e	-0.11063467
238	0xbe1de737	-0.15420233
239	0xbcddc423	-0.027071064
240	0x3dabebca	0.083945826
241	0xbe32518f	-0.17413925
242	0xbdfaeae0	-0.1225183
243	0xbde8ac0c	-0.1136094
244	0xbd8e9718	-0.069624126
245	0xbe278e35	-0.16362841
246	0xbe280527	-0.16408215
247	0xbdab8fb7	-0.08377021
248	0x3e2a27a2	0.16616681
249	0xbd147ed0	-0.03625375
250	0xbd211f84	-0.039336696
251	0x3c4ab56d	0.012372357
252	0x3c3a64c0	0.01137656
253	0xbcbd1fa5	-0.023086378
254	0xbba3eaef	-0.0050023715
255	0x3c7a7ff3	0.0152892945

encoder.0.bias f4 [8]
0	0xbed7d7cc	-0.42156827
1	0xbe64b566	-0.22334823
2	0xbf850ae7	-1.0393952
3	0xbeb179fb	-0.34663376
4	0xbecaa5f4	-0.39579737
5	0xbd2d2592	-0.042272158
6	0xbecf4697	-0.40483543
7	0xbf21466e	-0.6299809

encoder.2.weight f4 [16, 8, 4, 4]
0	0xbf032328	-0.5122552
1	0xbee51536	-0.44742745
2	0xbeab90d4	-0.33508933
3	0xbe99bcd8	-0.3002689
4	0xbeea2cc1	-0.4573727
5	0xbeb541ea	-0.3540185
6	0xbe941068	-0.28918767
7	0xbe8d4976	-0.2759511
8	0xbed1df6c	-0.4099077
9	0xbea916b8	-0.33025146
10	0xbe91272d	-0.283502
11	0xbe8b5abc	-0.27217662
12	0xbed82865	-0.4221832
13	0xbea6f414	-0.32608092
14	0xbe9b19b9	-0.30293062
15	0xbe998a90	-0.29988527
16	0xbe45fe16	-0.19335207
17	0xbe201b20	-0.15635347
18	0xbde90a8e	-0.11378966
19	0xbda89129	-0.08230812
20	0xbe391016	-0.18072543
21	0xbdec87cb	-0.11549338
22	0xbd55c84a	-0.052192964
23	0xbc231410	-0.009953514
24	0xbe112db9	-0.14177598
25	0xbd56bd73	-0.052426767
26	0x3ccbf536	0.0248972
27	0x3c4ced81	0.012507797
28	0xbe169f07	-0.14709102
29	0xbda1b85d	-0.07896493
30	0xbc14ae1e	-0.009074716
31	0x3cf11d5c	0.029432945
32	0xbc20f34d	-0.009823632
33	0xbbb46424	-0.0055051018
34	0x3d08c86b	0.03339426
35	0x3cfc2407	0.030778898
36	0xbdb8e1bb	-0.0902743
37	0xbd96afa2	-0.07357718
38	0xbd4da21e	-0.050203435
39	0x3bbe50f5	0.0058079907
40	0xbd5259c8	-0.051355153
41	0xbd4f3ea4	-0.050596848
42	0xbd14a974	-0.036294416
43	0xbd04ee60	-0.032453895
44	0x3c94a846	0.018146645
45	0x3b0acc48	0.002117889
46	0xbb2defdb	-0.002654067
47	0xbd4940e0	-0.049134135
48	0xbccdca0a	-0.025120754
49	0xbbdd5974	-0.0067550484
50	0xbd5d31e0	-0.054002643
51	0xbd625fa1	-0.05526698
52	0x3cde85a6	0.027163338
53	0x3d8588c2	0.06520225
54	0x3d8e8708	0.06959349
55	0xbdb096e4	-0.0862253
56	0xbcdd2285	-0.026994
57	0x3dc423c0	0.09577131
58	0x3d77d921	0.060509805
59	0xbd2f379f	-0.042777654
60	0xbcd1dfe1	-0.02561945
61	0xbd32eb52	-0.04368145
62	0x3d40f97a	0.04711292
63	0x3dab7479	0.08371825
64	0x3d2b212e	0.04177969
65	0xbc9fc951	-0.019505175
66	0x3cbfac0c	0.023397468
67	0xbd23a680	-0.03995371
68	0xbb6b4908	-0.0035901684
69	0x3d316f0f	0.043318804
70	0x3d1cbac1	0.03826404
71	0xbd896dbf	-0.067103855
72	0x3bee37da	0.0072698416
73	0x3debb633	0.11509361
74	0x3dbc72c9	0.09201581
75	0x3d892315	0.066961445
76	0x3cfddcb9	0.030989038
77	0x3cca5682	0.024699453
78	0x3bb8d085	0.005640092
79	0x3dd62742	0.104567066
80	0xbd67850f	-0.05652338
81	0xbdbfb11f	-0.09359955
82	0xbe36ddfb	-0.17858116
83	0xbe78d349	-0.24299349
84	0xbd90bf8e	-0.07067786
85	0xbd8c4d9d	-0.06850741
86	0xbd4ab886	-0.04949238
87	0xbe3595b1	-0.17732884
88	0xbe028c6c	-0.12748879
89	0xbd936ef1	-0.07198895
90	0xbdcfe4bc	-0.101510495
91	0xbe09eca8	-0.13469183
92	0xbe0eadc2	-0.13933471
93	0xbe509728	-0.20370162
94	0xbdd1da67	-0.10246735
95	0xbd8154d2	-0.06315006
96	0x3d335b62	0.04378832
97	0x3d1d9c46	0.038479112
98	0x3d553492	0.052052088
99	0x3bfd4895	0.0077295997
100	0x3ce07184	0.027397878
101	0xbd8f4efc	-0.06997487
102	0xbda69975	-0.08134738
103	0xbd4c47fd	-0.04987334
104	0x3d334481	0.043766502
105	0xbd0ac1ab	-0.033876102
106	0xbd7a446e	-0.061100416
107	0xbd743937	-0.059624877
108	0x3d5e42b1	0.05426282
109	0xbc8abd0e	-0.016935851
110	0xbcd68a79	-0.026189076
111	0xbe060c0f	-0.13090537
112	0x3ddf4a0e	0.10902797
113	0x3e63a47f	0.22230719
114	0x3e56c4eb	0.20973556
115	0x3e4a5100	0.19757462
116	0x3e71ddcd	0.23619767
117	0x3e80c147	0.2514746
118	0x3e8e6629	0.27812317
119	0x3e555ce7	0.2083622
120	0x3e6a6c00	0.22892761
121	0x3e84d442	0.2594319
122	0x3e7c746d	0.24653788
123	0x3e55e2bc	0.20887274
124	0x3e8429b3	0.25813064
125	0x3e926cde	0.28598684
126	0x3e661304	0.22468191
127	0x3e22c737	0.15896307
128	0xbe20ce3d	-0.15703674
129	0x3b301482	0.0026867692
130	0x3cdcf317	0.026971383
131	0xbcf996e5	-0.03046746
132	0x3c09e959	0.008417451
133	0x3deb4e61	0.11489559
134	0x3e212b43	0.1573916
135	0x3d79bd7e	0.06097173
136	0x3d255b9c	0.04037057
137	0x3e200ed6	0.1563066
138	0x3e3c6158	0.18396509
139	0x3e01ba26	0.12668666
140	0xbcc0f96d	-0.023556435
141	0x3d5243e4	0.051334277
142	0x3dd0fcaa	0.10204442
143	0x3dd25893	0.102708004
144	0x3c0fc53a	0.00877505
145	0xbb88ba57	-0.004172604
146	0x3c5cc077	0.013473622
147	0x3df4d51a	0.119547084
148	0xbd7bde9d	-0.061491597
149	0xbe2198e9	-0.15780987
150	0xbe1a5f8c	-0.1507551
151	0x3e2db8b7	0.16964994
152	0x3bd702e1	0.0065616225
153	0xbe1c4790	-0.15261674
154	0xbe790345	-0.24317653
155	0x3dff5361	0.12467075
156	0x3debaa49	0.11507089
157	0x3d60dc89	0.05489782
158	0xbda659cb	-0.081225954
159	0x3d74987e	0.05971574
160	0xbdcb6ccd	-0.099328615
161	0xbd18d164	-0.037309065
162	0xbda6aa46	-0.08137946
163	0xbe071b20	-0.13193941
164	0x3b1c8857	0.0023884976
165	0xbdb43264	-0.08798674
166	0xbdf0ffcf	-0.117675416
167	0xbe5ed676	-0.21761498
168	0xbcdc3bde	-0.026884016
169	0xbdd809d9	-0.10548753
170	0xbe05c37f	-0.13062857
171	0xbe52c06e	-0.20581219
172	0xbde212c7	-0.11038738
173	0xbea5480b	-0.32281527
174	0xbe930b04	-0.28719342
175	0xbe893e32	-0.26805264
176	0x3de734d1	0.11289371
177	0x3e157b10	0.14597726
178	0x3e1e415a	0.15454617
179	0x3d92c549	0.071665354
180	0x3e1189e8	0.14212763
181	0x3dc4102f	0.09573399
182	0x3d273713	0.040824007
183	0xbc02c781	-0.007982136
184	0x3e018dde	0.12651774
185	0x3ceaf5ce	0.028681662
186	0xbda5eec4	-0.081021816
187	0x3ca17396	0.019708436
188	0x3d86e9ef	0.06587588
189	0xbc21ee3d	-0.009883461
190	0xbd6f90cb	-0.058487695
191	0x3e1c7d19	0.15282096
192	0x3de48d82	0.11159803
193	0x3da0a8a8	0.078446686
194	0x3d26725a	0.040636398
195	0x3e1d3939	0.1535386
196	0x3da189c2	0.07887603
197	0xbd973661	-0.07383419
198	0xbe240d36	-0.16020665
199	0x3d220673	0.03955693
200	0x3d80292e	0.062578544
201	0xbe0c9bce	-0.1373131
202	0xbed88737	-0.4229066
203	0xbe2c17b7	-0.16805921
204	0x3e1eafff	0.15496825
205	0x3d988396	0.07446973
206	0xbd103d66	-0.035214804
207	0x3d4f9967	0.050683405
208	0x3e4466bf	0.1917982
209	0x3e19979b	0.14999239
210	0x3dcf1d47	0.10113006
211	0x3d8c1133	0.06839218
212	0x3e2596c8	0.161708
213	0xbe0c7816	-0.13717684
214	0xbe6b508e	-0.22979948
215	0x3c9067fa	0.017627705
216	0x3e0b9b15	0.13633378
217	0xbe3fcfae	-0.18731567
218	0xbeaf51eb	-0.34242186
219	0xbdf4c66e	-0.1195191
220	0x3dcac6bd	0.099011876
221	0xbb852707	-0.0040634903
222	0xbe001edf	-0.12511776
223	0xbd258dce	-0.04041844
224	0xbdcd87c6	-0.10035662
225	0x3d943459	0.07236547
226	0x3dacbc98	0.08434409
227	0xbcd71629	-0.026255684
228	0xbd1522a4	-0.03640999
229	0x3e93a465	0.2883636
230	0x3ee2c71b	0.4429253
231	0x3e0d86a2	0.1382089
232	0xbcf595bd	-0.029978627
233	0x3e8d579f	0.27605912
234	0x3edb340e	0.42813152
235	0x3e38ff26	0.18066081
236	0xbe3f6030	-0.18689036
237	0x3be2a253	0.006916323
238	0x3e154096	0.14575419
239	0x3c80909c	0.015693955
240	0x3e55bf28	0.20873702
241	0x3dfbebaf	0.123008125
242	0x3e26eaff	0.16300581
243	0xbde2b4f3	-0.110696696
244	0x3ea02df7	0.31285068
245	0x3db6ee39	0.08932156
246	0x3e3662b8	0.17811096
247	0xbd957cd6	-0.07299201
248	0x3e15c276	0.14624962
249	0xbd95d035	-0.07315103
250	0xbcfbfe92	-0.030761037
251	0xbe8e080d	-0.27740517
252	0xbd19eadd	-0.0375775
253	0xbe1d0d3b	-0.15337078
254	0xbe42f164	-0.19037396
255	0xbec2c635	-0.38041845

encoder.2.bias f4 [16]
0	0x3dbbef8d	0.0917655
1	0x3e159981	0.14609338
2	0x3f1f989e	0.6234225
3	0x3ef0f705	0.4706346
4	0x3dbdfaa0	0.092763186
5	0x3e7647a3	0.24050765
6	0x3d0fa86a	0.03507272
7	0xbda6e6e4	-0.08149508
8	0xbd60d12b	-0.054886978
9	0x3f7e8044	0.9941447
10	0xbe16d794	-0.14730674
11	0xbee0eb88	-0.43929696
12	0x3e866a33	0.262529
13	0xbd20028a	-0.03906492
14	0x3e610bb0	0.21977115
15	0xbe38261f	-0.17983292

encoder.4.weight f4 [32, 16, 4, 4]
0	0xbe81e3c0	-0.25369072
1	0xbe945e46	-0.28978175
2	0xbe406eb8	-0.18792236
3	0xbd9ac498	-0.075570285
4	0xbe7b10bf	-0.24518107
5	0xbe876e0c	-0.26451147
6	0xbe2de255	-0.1698087
7	0xbdeb6153	-0.114931725
8	0xbe9ed3c8	-0.3102095
9	0xbe83d4cc	-0.2574829
10	0xbe3917c3	-0.1807547
11	0xbe093ba2	-0.13401654
12	0xbeae6a5c	-0.3406552
13	0xbea2368d	-0.31682244
14	0xbe79eedc	-0.24407524
15	0xbe116770	-0.14199615
16	0x3e392a2b	0.18082492
17	0x3da33819	0.07969684
18	0x3d873169	0.06601221
19	0x3d8b6b0a	0.068075255
20	0x3e6ca156	0.2310842
21	0x3d702b9f	0.05863535
22	0x3e238a24	0.15970665
23	0x3da3c6b9	0.07996888
24	0x3d7b212a	0.061310925
25	0xbd809176	-0.062777445
26	0x3d403539	0.046925757
27	0xbd26c98e	-0.04071956
28	0x3e337794	0.17526084
29	0x3d1db392	0.03850133
30	0xbc593f2d	-0.013259691
31	0x3c8ae84c	0.01695647
32	0xbe54abb1	-0.2076862
33	0xbd8cc8e1	-0.06874252
34	0xbd87236e	-0.065985546
35	0xbb6b7f0c	-0.003593388
36	0xbe4eb633	-0.20186691
37	0xbd993f8b	-0.07482823
38	0xbd9e9434	-0.07743111
39	0xbd0faa5c	-0.035074577
40	0xbe55ec74	-0.20890981
41	0xbde58493	-0.11206927
42	0xbdd35731	-0.10319365
43	0xbdbde40a	-0.092720106
44	0xbdd9f981	-0.10643292
45	0xbcff6740	-0.031177163
46	0xbd82190c	-0.063524336
47	0xbd051e8d	-0.03249984
48	0xbeb3fd8c	-0.35154378
49	0x3c1a4661	0.009416194
50	0xbe1c3db3	-0.15257911
51	0x3d0d314e	0.03447085
52	0xbe06f391	-0.1317885
53	0xbf144271	-0.5791388
54	0xbc4b755f	-0.01241812
55	0x3da03988	0.07823473
56	0xbe7d5ed8	-0.24743211
57	0x3d7c9443	0.06166483
58	0x3d8e869e	0.0695927
59	0xbd16dfe9	-0.03683463
60	0xbe442a98	-0.19156873
61	0xbd4021cd	-0.046907235
62	0xbdd51353	-0.104040764
63	0x3d92190a	0.07133682
64	0xbe92dbd5	-0.28683344
65	0xbe2c12bd	-0.16804023
66	0xbded3c81	-0.11583806
67	0xbdba004b	-0.09082087
68	0xbe8e8197	-0.27833244
69	0xbb17a75c	-0.0023140525
70	0x3caea659	0.021319555
71	0xbd70fcd3	-0.058834862
72	0xbe764d29	-0.24052872
73	0xbc0eea85	-0.008722906
74	0xbd542045	-0.051788587
75	0xbd68c7d7	-0.056831207
76	0xbe8426ee	-0.2581095
77	0xbd88a42f	-0.066719405
78	0xbe0d38ab	-0.13791148
79	0xbdde22a9	-0.10846455
80	0x3f666fd1	0.9001437
81	0x3e5efbba	0.21775714
82	0xbd7091a7	-0.058732655
83	0x3c82d23c	0.015969388
84	0x3f49803c	0.78711295
85	0x3d0d9cc7	0.034573343
86	0xbd8dece3	-0.06929948
87	0xbded6482	-0.11591436
88	0x3f3f6298	0.7475982
89	0x3da48ba1	0.080344446
90	0xbd9a7634	-0.07542077
91	0xbdda87ec	-0.10670456
92	0x3efefe44	0.49803364
93	0xbc9e51d8	-0.019326136
94	0xbdfb7df9	-0.12279887
95	0xbe0b68da	-0.13614216
96	0x3e341109	0.17584623
97	0x3e026972	0.12735537
98	0x3de314e9	0.11087973
99	0xbd25b6bf	-0.040457483
100	0x3de45c5f	0.11150431
101	0x3dcc57c9	0.09977681
102	0x3cf49e84	0.029860742
103	0xbdb9da8b	-0.09074887
104	0x3e5e97f0	0.21737647
105	0x3de5ddc2	0.112239376
106	0x3d3641b8	0.044496268
107	0xbd947250	-0.07248366
108	0x3de6031f	0.11231064
109	0x3d3d3c03	0.04619981
110	0x3cda9259	0.026681112
111	0xbda6d9b4	-0.08146992
112	0x3f0c735d	0.5486353
113	0x3e0b34ac	0.13594311
114	0xbc80a9d5	-0.015705982
115	0xbe487842	-0.19577125
116	0x3ed0dcd0	0.40793467
117	0x3df3030e	0.11865817
118	0xbdf4ede6	-0.11959438
119	0xbe934d5c	-0.28769958
120	0x3e954ac8	0.29158616
121	0xbb1e2a9d	-0.0024134286
122	0xbe3c07a4	-0.1836229
123	0xbe800e34	-0.25010836
124	0x3e742aab	0.23844402
125	0xbda6d4d9	-0.08146066
126	0xbe97aaf6	-0.2962262
127	0xbeb59efa	-0.35472852
128	0xbc117dcf	-0.008880093
129	0xbb8064dd	-0.003918274
130	0xbb1c51e5	-0.0023852524
131	0xbb686448	-0.0035460163
132	0xbc43b387	-0.011944658
133	0xbb8a7800	-0.004225731
134	0xbb59236b	-0.0033132683
135	0xbb888bdc	-0.004167063
136	0xbc519f63	-0.012794348
137	0xbb9c7138	-0.004774239
138	0xbbb5055f	-0.005524322
139	0xbbaef543	-0.005339296
140	0xbc2c8964	-0.010530803
141	0xbb950f51	-0.004548945
142	0xbb8cb2f9	-0.004293796
143	0xbb454b70	-0.0030104779
144	0x3f51db51	0.81975275
145	0x3eaa31b3	0.33241042
146	0xbde5d5ae	-0.11222397
147	0xbe0f7279	-0.14008512
148	0x3f0793c7	0.52959865
149	0x3e357817	0.17721592
150	0xbd699502	-0.05702687
151	0xbd870c40	-0.065941334
152	0x3ed2b348	0.41152406
153	0x3dd284e9	0.10279257
154	0xbd6fd23e	-0.058550112
155	0xbdaaa6c7	-0.083325915
156	0x3e93104a	0.28723365
157	0xbcded309	-0.027200239
158	0xbb38522c	-0.002812515
159	0xbdcfca14	-0.10145965
160	0xbe4fa2bc	-0.20276922
161	0xbe47da25	-0.1951681
162	0xbe081211	-0.13288142
163	0xbd0ee221	-0.034883622
164	0xbe1dd3c6	-0.15412816
165	0xbe23e3fd	-0.1600494
166	0xbd13c4c9	-0.03607634
167	0x3bccf315	0.0062545636
168	0xbe3576a3	-0.17721038
169	0xbdcf14cf	-0.10111391
170	0xbdb7a518	-0.08967036
171	0xbc91dbbf	-0.017804978
172	0xbe3faf62	-0.18719247
173	0xbe174f9a	-0.1477646
174	0xbd885abc	-0.06657931
175	0x3c52d6a2	0.012868555
176	0x3ef8f828	0.48626828
177	0x3ea17592	0.31535012
178	0x3df9deb1	0.12200678
179	0x3d059da0	0.032621026
180	0x3ee14b7f	0.4400291
181	0x3e87e95a	0.2654522
182	0x3ccf8b3c	0.025334947
183	0xbdce195a	-0.10063429
184	0x3ec41047	0.3829367
185	0x3e45a2ea	0.19300428
186	0xbdd1af0c	-0.10238466
187	0xbe25bfa8	-0.16186392
188	0x3ea0c691	0.31401494
189	0x3db9c5fe	0.09070967
190	0xbe3f0097	-0.18652569
191	0xbe7aaf86	-0.2448102
192	0xbe5b34b0	-0.21406817
193	0xbe20b20d	-0.15692921
194	0xbc425465	-0.011860942
195	0xbdb2bf9c	-0.08727953
196	0xbe68b9e2	-0.22727159
197	0xbe8cd982	-0.27509695
198	0xbd679375	-0.05653711
199	0xbdcecd93	-0.10097804
200	0xbdd05ef6	-0.10174362
201	0xbdf77586	-0.12082963
202	0xbc13ff61	-0.009033055
203	0xbdd301cb	-0.10303076
204	0xbd56aa08	-0.05240825
205	0xbd490632	-0.049078174
206	0xbbdb34c3	-0.0066896393
207	0xbe0c0bdd	-0.136764
208	0xbebf9b72	-0.37423283
209	0xbdf886bc	-0.121350735
210	0xbda1e7d0	-0.07905543
211	0xbdca2541	-0.09870387
212	0xbe56c10b	-0.20972078
213	0xbdfa915f	-0.122347586
214	0xbda4be01	-0.08044053
215	0xbdc02b38	-0.09383243
216	0xbe000ab4	-0.12504083
217	0xbdaa599b	-0.08317872
218	0xbda797f9	-0.08183283
219	0xbdbf119a	-0.09329529
220	0xbda7ec7f	-0.08199405
221	0xbdcf59e1	-0.10124565
222	0xbda58114	-0.0808126
223	0xbd9bfd51	-0.07616676
224	0x3d34d0f4	0.044144586
225	0xbd93c217	-0.07214754
226	0xbe6f618f	-0.2337706
227	0xbeb45e79	-0.35228327
228	0xbd7071b4	-0.058702186
229	0xbdfe7d16	-0.12426202
230	0xbe82706c	-0.25476396
231	0xbec6a55c	-0.38798034
232	0xbe1389de	-0.14408061
233	0xbe333df5	-0.17504103
234	0xbe810a4e	-0.25203174
235	0xbe974e57	-0.29551956
236	0xbe488d69	-0.19585194
237	0xbe7f7868	-0.24948275
238	0xbe8d0bee	-0.27548164
239	0xbebebb3c	-0.37252223
240	0x3f8dffbe	1.1093671
241	0x3ec899de	0.3917989
242	0x3e0ae460	0.1356368
243	0xbe091d84	-0.13390166
244	0x3f163bb8	0.58684874
245	0xbd064fa0	-0.03279078
246	0xbe02426f	-0.12720655
247	0xbe94d69b	-0.2906998
248	0x3eddcac1	0.4331875
249	0xbd2e54e1	-0.042561416
250	0xbdb42db2	-0.08797778
251	0xbe9e4fcc	-0.30920255
252	0x3ec863dd	0.3913869
253	0xbde60c5d	-0.11232827
254	0xbe378230	-0.17920756
255	0xbe910a76	-0.28328294

encoder.4.bias f4 [32]
0	0xbea0ac0c	-0.3138126
1	0xb5b62cce	-1.3573097e-06
2	0xbee59e70	-0.4484744
3	0xbe2c43b9	-0.16822709
4	0xbeae3657	-0.34025833
5	0xb33687d1	-4.24987e-08
6	0xbf2709ae	-0.65249145
7	0xbe85b145	-0.26111808
8	0xbf06b648	-0.5262189
9	0x3ed91b08	0.42403436
10	0xacb92b7f	-5.2628453e-12
11	0xbe8e5cbf	-0.27805135
12	0xbf18ab94	-0.5963681
13	0xbee07029	-0.4383557
14	0xbe243782	-0.160368
15	0xbe040f0b	-0.12896363
16	0xbe2956df	-0.16537045
17	0xa29db581	-4.274711e-18
18	0x3ed0c4b3	0.4077507
19	0xb99fee97	-0.00030504607
20	0xb8a141af	-7.689313e-05
21	0xbe48038d	-0.19532605
22	0x3e0352cb	0.12824552
23	0x3c58f1f2	0.013241278
24	0xbe8328b2	-0.25616986
25	0x3c5a692a	0.013330737
26	0xb4d0e1b7	-3.8907248e-07
27	0x3e91d9e8	0.28486562
28	0xbd6c721e	-0.057726018
29	0xba568d37	-0.0008184495
30	0xbccb3355	-0.02480475
31	0x3e915bd6	0.28390378

decoder.0.weight f4 [32, 16, 4, 4]
0	0x00111624	1.569146e-39
1	0x800230ff	-2.01247e-40
2	0x80167f9d	-2.06616e-39
3	0x8025ba71	-3.464796e-39
4	0xbdc37694	-0.09544101
5	0xbce2c334	-0.02768097
6	0xbdd4ac64	-0.103844434
7	0x3e6e7558	0.2328695
8	0x8026a037	-3.547223e-39
9	0x80060622	-5.53213e-40
10	0x8006ae99	-6.13647e-40
11	0x002629a5	3.504688e-39
12	0xbd8a7ebb	-0.06762453
13	0x3c92a7c0	0.017902255
14	0xbd914bee	-0.070945606
15	0x3e6464c2	0.22304061
16	0x3d3c7f22	0.04601968
17	0x3b2e659e	0.0026610862
18	0x3d4fb731	0.050711814
19	0x3de2a3f8	0.11066431
20	0xbe981e21	-0.29710487
21	0xbd853163	-0.065035604
22	0x3d304815	0.043037493
23	0x3b38537a	0.0028125928
24	0x3d2e38b9	0.042534564
25	0x3dbfdfed	0.09368882
26	0x3df198bb	0.11796709
27	0x3e46eb41	0.1942568
28	0xbe698906	-0.22806177
29	0xbce4b65e	-0.02791899
30	0x3e399a00	0.18125153
31	0x3da2c2ed	0.079473354
32	0xbe8e86d6	-0.27837247
33	0xbec2c50d	-0.38040963
34	0x3cd360ad	0.025802935
35	0x3e97dc89	0.29660442
36	0xbe6a5e26	-0.22887477
37	0xbeb04533	-0.34427795
38	0xbd3d293a	-0.046181895
39	0x3ddf3cb8	0.10900253
40	0xbe278c2a	-0.16362062
41	0xbeaa59fc	-0.33271778
42	0x3c952e30	0.0182105
43	0x3e094e80	0.13408852
44	0xbdfcb388	-0.1233893
45	0xbe3d7930	-0.1850326
46	0x3ea315d2	0.31852585
47	0x3f46f799	0.77721554
48	0xbd92a792	-0.07160868
49	0x3d1549b5	0.036447246
50	0x3b911874	0.004427964
51	0xbb71e5de	-0.0036910693
52	0xbcbf5a30	-0.023358434
53	0xbcfb782c	-0.03069695
54	0x3cf0ef6d	0.029411042
55	0x3d75da3e	0.060022585
56	0xbd5b377c	-0.05351971
57	0x3d1820e4	0.037140742
58	0xbd51b8c7	-0.051201608
59	0xbcc30877	-0.023807747
60	0x3c49e073	0.012321579
61	0xbb6392e7	-0.0034725012
62	0x3c9cb532	0.01912937
63	0xbcece0f2	-0.028915856
64	0x3d709c10	0.058742583
65	0x3df7976f	0.120894305
66	0x3e568dd8	0.20952547
67	0x3e903d8d	0.2817196
68	0xbe8528dd	-0.2600774
69	0x3d5dee0a	0.05418209
70	0xbe6add4f	-0.22935985
71	0xbd270fe6	-0.040786646
72	0x3d4bccf8	0.04975602
73	0x3d06220e	0.03274732
74	0x3e2adae7	0.16685067
75	0x3eaa5da3	0.33274564
76	0xbe3a0e88	-0.18169606
77	0x3e29ba0f	0.16574882
78	0xbd85355c	-0.06504318
79	0x3c22ac88	0.00992883
80	0x3d83a42b	0.06427797
81	0xbdb12ad0	-0.08650744
82	0x3dae6a8e	0.085164174
83	0x3c8381fc	0.016053192
84	0xbdb9cbc2	-0.09072067
85	0xbdf35a7f	-0.11882495
86	0x3cc06280	0.023484468
87	0x3e83f624	0.25773728
88	0x3d176eaf	0.03697079
89	0xbdb40115	-0.08789269
90	0x3e486455	0.19569524
91	0x3e1feaa9	0.1561686
92	0xbd74d113	-0.0597697
93	0x3bece67d	0.007229625
94	0x3dd7c13c	0.105349034
95	0x3ed521e2	0.41627413
96	0x800df2bb	-1.280937e-39
97	0x3e083658	0.1330198
98	0x0000ebbf	8.457e-41
99	0xbd9f5364	-0.077795774
100	0x3e4087e4	0.18801838
101	0x8000b446	-6.467e-41
102	0x3e219520	0.15779543
103	0x8000fa21	-8.973e-41
104	0x8001f98f	-1.8136e-40
105	0x3de356fa	0.11100574
106	0x00010409	9.3283e-41
107	0xbe42f1db	-0.19037573
108	0x3cb957e0	0.02262491
109	0x800d97ac	-1.248271e-39
110	0x3da1103f	0.07864427
111	0x800426ad	-3.81216e-40
112	0x3bc96fd1	0.0061473628
113	0xbddb5d52	-0.10711159
114	0x3cb74ca2	0.022375409
115	0x3e8713e9	0.26382378
116	0xbdbb1658	-0.09135121
117	0xbe2971d0	-0.16547322
118	0xbcbe1f77	-0.023208363
119	0x3e7ad941	0.24496938
120	0xbc49c84d	-0.012315822
121	0xbd0f2ad5	-0.034952957
122	0x3e74c96d	0.23904963
123	0x3eb9a815	0.3626105
124	0x3c74b8e0	0.014936656
125	0xbb89b423	-0.004202382
126	0x3e790661	0.2431884
127	0x3f55a18a	0.83449614
128	0x3c8a660b	0.016894361
129	0x3d279c7e	0.040920727
130	0xb9db9fa4	-0.00041889877
131	0x3cf12b2b	0.02943953
132	0xbe305281	-0.17218973
133	0x3e4debe8	0.20109522
134	0x3d698561	0.057011966
135	0x3e61b53a	0.22041789
136	0x3d5caf80	0.053878307
137	0x3d108461	0.035282496
138	0x3e86bd59	0.26316336
139	0x3d1cd1fe	0.0382862
140	0xbc1720cc	-0.009224128
141	0x3d73fa9c	0.05956517
142	0x3e048cb6	0.12944302
143	0x3c2e2d39	0.010630899
144	0xbe674982	-0.22586635
145	0x3e02ec82	0.12785533
146	0x3dec0bbb	0.11525675
147	0xbd591c63	-0.053005587
148	0xbe3eba63	-0.18625788
149	0xbf06218b	-0.5239493
150	0xbd40571e	-0.04695808
151	0xbd534398	-0.051578134
152	0x3d8fa626	0.07014112
153	0x3e32ea12	0.17472103
154	0x3eadc69e	0.33940595
155	0xbe34eb90	-0.17667985
156	0xbe0b49b6	-0.13602337
157	0xbdf3c6dd	-0.119031645
158	0x3e1126f1	0.14175011
159	0x3d4e5201	0.050371174
160	0xbe6731d0	-0.22577596
161	0x00007851	4.3161e-41
162	0xbcf15e80	-0.029464006
163	0x8011e2ae	-1.642521e-39
164	0x0001309f	1.09277e-40
165	0x80038caf	-3.25974e-40
166	0x80067ec1	-5.96484e-40
167	0x800308d0	-2.78668e-40
168	0xba05f253	-0.00051096565
169	0x0002a1ed	2.41759e-40
170	0x3dd9550e	0.10611926
171	0x80064c21	-5.78323e-40
172	0x000e2025	1.297228e-39
173	0x80184276	-2.227894e-39
174	0x8016bfe5	-2.08922e-39
175	0x002cfac8	4.130725e-39
176	0xbdfcede0	-0.123500586
177	0xbd3309b0	-0.04371041
178	0x3bf4e814	0.007473955
179	0x3d717fc0	0.058959723
180	0xbc7f99d8	-0.015600644
181	0xbeaf11a5	-0.3419315
182	0x3dbecdbd	0.09316585
183	0x3e367423	0.1781774
184	0x3dbb9fb5	0.09161321
185	0x3e4bb7fd	0.19894405
186	0x3e40c50b	0.18825166
187	0x3d962f9c	0.073332995
188	0xbd2b59b8	-0.04183361
189	0xbdb5f946	-0.08885436
190	0x3e4990a6	0.19684085
191	0x3e47ded2	0.19518593
192	0x3e8b77ce	0.2723984
193	0x3ddde51e	0.10834716
194	0x3e518b8f	0.20463394
195	0x3e063d78	0.13109386
196	0x3d6c69fe	0.05771827
197	0x3df4c75e	0.11952089
198	0x3e74a80d	0.23892231
199	0x3d201de2	0.039091
200	0x3e468159	0.1938528
201	0x3e1e0349	0.1543094
202	0x3ea60f27	0.32433435
203	0x3e99faba	0.30074102
204	0x3dd5aacd	0.10432968
205	0xbd968efa	-0.07351489
206	0x3e86d270	0.26332426
207	0xbda420d5	-0.08014075
208	0x3dfb92bb	0.12283846
209	0x3b79d740	0.0038122684
210	0xbbecc737	-0.0072258967
211	0xbebcaa31	-0.36848596
212	0x3d9b3dc0	0.07580137
213	0x3e478953	0.19485979
214	0x3d5e80bb	0.054321986
215	0xbe55d95e	-0.208837
216	0x3d5f3254	0.054491356
217	0x3e1c3a63	0.15256648
218	0xbe2797f4	-0.1636656
219	0xbd8f285f	-0.06990122
220	0x3e7579d3	0.23972254
221	0xbe151c08	-0.14561474
222	0xbdd146ed	-0.10218606
223	0xbedc6994	-0.430493
224	0xbc4a6746	-0.012353724
225	0x0001969f	1.45868e-40
226	0xbc93eb2a	-0.01805647
227	0x00017b09	1.35972e-40
228	0xbe38e7df	-0.18057202
229	0xbe379412	-0.17927578
230	0x3e1832d1	0.14863135
231	0x3e1f9f0b	0.15588014
232	0x3d3c0af1	0.045908872
233	0x801d28b2	-2.677828e-39
234	0x3d2c72b3	0.042101573
235	0x8021f5e2	-3.118778e-39
236	0xbdeacc75	-0.11464778
237	0x3cbeecbc	0.023306243
238	0x3ecdf795	0.40227953
239	0x3f4209dc	0.75796294
240	0xbe499502	-0.19685748
241	0xbd3eb2a1	-0.046557073
242	0x3a1e58ed	0.00060404727
243	0xbe18929e	-0.1489968
244	0xbe22d67e	-0.15902135
245	0xbeb0afd6	-0.34509152
246	0x3d53cc2b	0.05170838
247	0xbd3d90ea	-0.04628078
248	0x3db8ec2f	0.090294234
249	0x3b6debbe	0.0036303843
250	0x3dfd367d	0.123639084
251	0x3d05b97d	0.0326476
252	0x3d463a2c	0.04839532
253	0xbc4ee399	-0.012627506
254	0x3e8695cd	0.26286164
255	0x3d95cf5a	0.0731494

decoder.0.bias f4 [16]
0	0xbe9b8c56	-0.30380505
1	0x3e8c0966	0.2735092
2	0xbeb790ef	-0.35852763
3	0xbda807de	-0.082046255
4	0xbebf5cc3	-0.3737546
5	0xbebc68ab	-0.36798605
6	0xbf97079a	-1.1799195
7	0x3dfaf17c	0.12253091
8	0x3e6ed144	0.23322016
9	0x3f100e54	0.56271863
10	0xbf25af5e	-0.64720714
11	0xbe81e2ea	-0.25368434
12	0xbf0be59d	-0.5464724
13	0xbe8f25eb	-0.27958617
14	0xbebb5ecd	-0.36595765
15	0xbc6d0b1c	-0.014467981

decoder.2.weight f4 [16, 8, 4, 4]
0	0x3ec70b4c	0.38875806
1	0x3e70eec5	0.23528583
2	0x3c1047d3	0.008806187
3	0x3e3f9302	0.18708423
4	0x3ecfefa0	0.40612507
5	0x800196ef	-1.4598e-40
6	0x3e7f958e	0.24959394
7	0x8001258b	-1.05303e-40
8	0xbe565641	-0.20931341
9	0x3e2dad06	0.16960534
10	0xbe0b8bb9	-0.13627519
11	0x3d914f28	0.07095176
12	0x3e17b606	0.1481553
13	0x801f065a	-2.849179e-39
14	0x3e7c28ee	0.24624988
15	0x800072b3	-4.1146e-41
16	0xbdf2de1f	-0.118587725
17	0xbdc1ff03	-0.09472468
18	0x3e5592fc	0.20856851
19	0xbd109a2a	-0.035303272
20	0x3ed627ed	0.41827336
21	0x3e1dfdae	0.15428802
22	0x3ed613ab	0.4181188
23	0x3dafce77	0.08584302
24	0xbd9be895	-0.07612721
25	0xbd59d3f8	-0.053180665
26	0x3e30023f	0.17188357
27	0x3d0a5821	0.033775453
28	0xba76a7da	-0.0009409167
29	0xbd0618ec	-0.03273861
30	0xbcf92179	-0.030411469
31	0xbdd231d3	-0.102634095
32	0x3e9ae56f	0.3025317
33	0x3e2e198f	0.17001937
34	0xbcf2788f	-0.029598502
35	0xbcd21501	-0.025644781
36	0x3ece230f	0.40261123
37	0x3e8dee8b	0.27721056
38	0xbb1db6a7	-0.0024065168
39	0xbda4491c	-0.08021757
40	0x3e8febe4	0.28109658
41	0x3e1b3d3a	0.15160075
42	0x3d3d527c	0.04622124
43	0xbcb77927	-0.022396637
44	0x3ec2b36f	0.38027522
45	0x3ec884f6	0.3916394
46	0xbdb4805e	-0.088135466
47	0xbdf55b56	-0.119803116
48	0x3e1d6c77	0.15373407
49	0x3e0918db	0.13388388
50	0x3d51088c	0.05103354
51	0x3d3f5ab4	0.04671736
52	0x3dce4d68	0.10073358
53	0x3e5f1a0c	0.2178728
54	0xbccb96f3	-0.024852252
55	0x3dc01dbd	0.09380672
56	0x3d14f320	0.036364675
57	0x3ddd6a5c	0.10811302
58	0xbd790558	-0.06079611
59	0x3d883fb1	0.06652773
60	0x3e3f6595	0.18691094
61	0x3d81991d	0.06328032
62	0xbc443c3e	-0.0119772535
63	0x3bed760d	0.0072467388
64	0x3e91becb	0.28465876
65	0x3dcbc2f8	0.09949297
66	0x3ce253a7	0.02762778
67	0xbc10cf5e	-0.008838503
68	0x3ee2c6a4	0.44292176
69	0x3ee333c0	0.4437542
70	0x3d4b1e92	0.0495897
71	0x3eb404b0	0.35159826
72	0x3dd64223	0.10461833
73	0x3da1e6ea	0.079053715
74	0xbcdf36b3	-0.027247762
75	0x3db7300f	0.08944713
76	0x3da26b18	0.07930583
77	0x3db108ea	0.08644278
78	0x3b17816a	0.0023117908
79	0xbd6e0121	-0.058106545
80	0x3e25b3f2	0.16181925
81	0x3d0b02f5	0.033938367
82	0x3c475392	0.012165921
83	0x3d1095cf	0.03529912
84	0xbbd1a550	-0.0063978806
85	0x3ddfd12a	0.10928567
86	0x3e7b96bd	0.24569221
87	0xbd16ef31	-0.036849204
88	0x3deece9d	0.11660502
89	0xbd2ad791	-0.041709486
90	0x3db9a142	0.090639606
91	0x3d3d9dd4	0.046293095
92	0xbd2ed9d9	-0.042688224
93	0xbe43e021	-0.19128467
94	0xbd7c6449	-0.061619077
95	0x3dde640b	0.108589254
96	0xbc167dc2	-0.009185256
97	0x3cc27676	0.023738127
98	0x3db2a401	0.087226875
99	0x3d06f705	0.03295042
100	0x3c66c2da	0.014084542
101	0x3cc16dad	0.023611868
102	0xbd61f760	-0.055167556
103	0x3d92678c	0.07148656
104	0xbe16c013	-0.14721708
105	0xbdb147c0	-0.08656263
106	0x3c98e70c	0.01866486
107	0x3cfad57e	0.03061938
108	0x3dc29fa2	0.09503104
109	0xbcb4d6d1	-0.022075089
110	0x3e18653e	0.14882371
111	0x3e03e95b	0.12881987
112	0x3e388d46	0.18022642
113	0x3e290b23	0.16508155
114	0xbd4c13dc	-0.049823627
115	0x3c47fc40	0.012206137
116	0x3de27f01	0.1105938
117	0x001d9be6	2.719155e-39
118	0xbde2d338	-0.11075443
119	0x001764be	2.148356e-39
120	0x3ebb8adf	0.36629388
121	0x3d66990f	0.05629831
122	0xbdf3c9ad	-0.11903701
123	0x3d540d6c	0.051770613
124	0x3f0f125d	0.55887395
125	0x8004ddc9	-4.46904e-40
126	0x3e396164	0.18103558
127	0x000df58a	1.281944e-39
128	0x3e604846	0.2190257
129	0xbe4415d9	-0.19148959
130	0xbd36fa21	-0.044672135
131	0xbdb7afa8	-0.08969051
132	0x3d7a0be2	0.06104649
133	0x8792caa9	-2.2086751e-34
134	0xbda95c51	-0.08269561
135	0x802198e6	-3.085421e-39
136	0xbe327c1a	-0.17430153
137	0xbdeee8b7	-0.116654806
138	0xbe66e692	-0.22548893
139	0xbe1c7105	-0.15277489
140	0xbe20d912	-0.15707806
141	0x8025497a	-3.424272e-39
142	0x3d5ed263	0.05439986
143	0x80187dfc	-2.249247e-39
144	0xbd09f6ad	-0.033682514
145	0xbe48a1e7	-0.19593011
146	0xbe15c3ee	-0.14625522
147	0xbe2818b0	-0.16415668
148	0x3e152fc8	0.14569008
149	0xbdf1b6be	-0.118024334
150	0xbd8191b5	-0.063266195
151	0xbd1a01fe	-0.037599556
152	0xbea22462	-0.31668383
153	0xbd4f1b2d	-0.050563026
154	0xbe9b7104	-0.30359662
155	0xbe481400	-0.1953888
156	0xbd6c4796	-0.057685457
157	0x3bea7bd6	0.0071558757
158	0xbd877c04	-0.06615451
159	0xbd5d27dd	-0.053993095
160	0x3ddb55b1	0.10709704
161	0xbe391764	-0.18075329
162	0xbdece747	-0.1156755
163	0xbd607fe8	-0.05480948
164	0x3b82961b	0.003985179
165	0xbc7d4ca4	-0.015460167
166	0xbd79cd2b	-0.06098668
167	0xbda497a6	-0.08036737
168	0x3e4b2791	0.19839312
169	0x3cc7a385	0.024369964
170	0xbe1b8d37	-0.15190588
171	0xbc7be779	-0.015375012
172	0x3ec35107	0.38147756
173	0x3e178ea4	0.14800507
174	0xbdd3f8d3	-0.10350194
175	0xbe32e3d3	-0.1746972
176	0x3de5ce7f	0.11221027
177	0x3d192219	0.037386034
178	0xbe892e8c	-0.26793325
179	0xbd9e45f6	-0.07728188
180	0x3deb266e	0.11481939
181	0x3d4890b5	0.04896613
182	0xbc49ffb0	-0.012329027
183	0xbe1204ad	-0.14259596
184	0x3e194e08	0.14971173
185	0x3d67605f	0.05648839
186	0x3d1176ee	0.03551381
187	0x3c1fb8b0	0.009748623
188	0x3eab7212	0.33485466
189	0x3e0cabce	0.13737413
190	0xbcda9fe0	-0.026687562
191	0x3dfdc525	0.12391118
192	0x3c3dcb8b	0.011584173
193	0xbd5ed8d0	-0.054405987
194	0xbdce1a45	-0.10063604
195	0xbe0a3727	-0.13497601
196	0x3c5f4cc0	0.0136291385
197	0xbe50dd29	-0.20396866
198	0xbdfed8dd	-0.12443707
199	0xbd83edfd	-0.06441877
200	0x3cbc3095	0.022972384
201	0xbc8a590a	-0.01688816
202	0xbd280162	-0.041016944
203	0xbbd5b81f	-0.006522193
204	0x3e0295da	0.12752476
205	0x3d292564	0.041295424
206	0xbcdcc172	-0.02694771
207	0xbd3adb7a	-0.045619465
208	0x3d91d7a7	0.071212105
209	0xbd43fa16	-0.047845922
210	0x3e01227c	0.12610811
211	0xbdb812d2	-0.08987965
212	0xbdc3658a	-0.095408514
213	0x3d029313	0.031878542
214	0xbdb6622d	-0.08905444
215	0x3beee834	0.0072908644
216	0xbe25fda3	-0.16210036
217	0xbdba3b0d	-0.09093294
218	0xbe81ea53	-0.25374088
219	0xbe122709	-0.14272703
220	0xbd888621	-0.06666208
221	0xbcb3d621	-0.02195269
222	0x3ca1299a	0.019673157
223	0x3c390b6d	0.011294228
224	0xbe0ecb0a	-0.13944641
225	0xbcf948fd	-0.030430311
226	0xbd96c9bd	-0.07362697
227	0xbda02327	-0.07819205
228	0xbd27ac6a	-0.04093591
229	0xbdeef6f2	-0.11668195
230	0xbd3882ba	-0.045046546
231	0xbd847a36	-0.064686224
232	0xbe1c3c10	-0.15257287
233	0xbc0a471f	-0.008439808
234	0xbe871cc0	-0.26389122
235	0xbb907a15	-0.0044090846
236	0x3cc68f7f	0.024238346
237	0xbe28cf6e	-0.16485378
238	0xbe077710	-0.13229012
239	0xbe8b44f3	-0.27201042
240	0x3e4aafb8	0.19793594
241	0x3db536bf	0.088483326
242	0x3d4f7a95	0.050654013
243	0xbcf8beda	-0.030364443
244	0x3eadc130	0.33936453
245	0x0025a2e0	3.456342e-39
246	0x3d6aee7c	0.057356343
247	0x800244f0	-2.08401e-40
248	0x3ede1176	0.43372697
249	0x3e0ece33	0.13945846
250	0x3dec44e3	0.115365766
251	0xbc10b043	-0.008831087
252	0x3f2b240a	0.66851866
253	0x0015d347	2.004337e-39
254	0x3e3c03a4	0.18360764
255	0x80013948	-1.12384e-40

decoder.2.bias f4 [8]
0	0xbfaac086	-1.3340003
1	0x3e627c1b	0.22117655
2	0xbe0dcc3a	-0.13847438
3	0xbe1646d0	-0.1467545
4	0xbcf98e15	-0.030463258
5	0xbe7907a4	-0.24319321
6	0xbe56190a	-0.20907989
7	0xbd7fa1fd	-0.062410343

decoder.4.weight f4 [8, 3, 8, 8]
0	0x3eece90f	0.4627156
1	0x3f096462	0.53668797
2	0x3e8c26d0	0.27373362
3	0x3ece9b43	0.4035283
4	0x3e8c8e92	0.27452523
5	0x3ecfc6c8	0.40581346
6	0x3e9f0b95	0.31063524
7	0x3ec519f1	0.38496354
8	0x3ec804f8	0.3906629
9	0x3ef5c4cb	0.48001704
10	0x3ecc282b	0.39874396
11	0x3f04e544	0.5191233
12	0x3ed29b34	0.41134036
13	0x3ebc8d9e	0.36826795
14	0x3f07177c	0.5277021
15	0x3ed04797	0.4067962
16	0x3eb58a16	0.35456914
17	0x3ec598dd	0.38593188
18	0x3eb30906	0.34967822
19	0x3ed1c738	0.40972304
20	0x3e9aef55	0.3026072
21	0x3ec936e9	0.39299706
22	0x3ed8026e	0.42189354
23	0x3eddd44a	0.43326026
24	0x3e8d1b9a	0.2756012
25	0x3ef55605	0.4791719
26	0x3ea9a241	0.33131602
27	0x3ea571c6	0.32313365
28	0x3eaf93cf	0.34292457
29	0x3eadec80	0.33969498
30	0x3f11c7a7	0.5694527
31	0x3e8a9f49	0.2707465
32	0x3edf2724	0.4358455
33	0x3edefb33	0.43551025
34	0x3e586378	0.21131694
35	0x3e74ea72	0.23917559
36	0x3e8cad14	0.27475798
37	0x3ebac2da	0.36476785
38	0x3ed1b3b6	0.4095742
39	0x3eeeca1e	0.46638578
40	0x3ef3d42f	0.4762282
41	0x3ef2271b	0.4729546
42	0x3ebad291	0.36488774
43	0x3ead2188	0.33814645
44	0x3eb12f55	0.34606424
45	0x3ed75fe2	0.4206534
46	0x3ee97ad6	0.4560153
47	0x3ea9db5c	0.3317517
48	0x3f13a0a9	0.5766702
49	0x3f023746	0.5086559
50	0x3ef44d2d	0.4771513
51	0x3ee5c97f	0.44880292
52	0x3ee633ac	0.44961298
53	0x3ee254b6	0.44205254
54	0x3f225720	0.6341419
55	0x3ecb1127	0.39661524
56	0x3ebec96f	0.37263057
57	0x3f06e1e7	0.5268845
58	0x3eab39c2	0.33442503
59	0x3ed4bae5	0.4154884
60	0x3ebb15f2	0.3654018
61	0x3ec20db4	0.3790108
62	0x3eeb785f	0.45990273
63	0x3eb5db91	0.35519078
64	0x3ece43b0	0.40286016
65	0x3e6e93e1	0.23298599
66	0x3e824f86	0.25451297
67	0x3db7a441	0.08966876
68	0x3e775f03	0.24157338
69	0x3e2a28b9	0.16617097
70	0x3e81cbf9	0.2535093
71	0x3de92461	0.11383892
72	0x3e9026db	0.28154644
73	0x3ef3756c	0.47550523
74	0x3eb3e4f7	0.35135624
75	0x3d8488c6	0.064714
76	0x3ec23e68	0.37938237
77	0x3ed29d15	0.4113547
78	0x3eceaddd	0.40367022
79	0x3cb1c1d8	0.021698877
80	0x3e0cc3a8	0.13746512
81	0x3ee641bf	0.44972035
82	0x3eaf3bc3	0.34225282
83	0x3e1bea5a	0.15226117
84	0x3e52491c	0.20535702
85	0x3eb2225b	0.34791836
86	0x3ee5a31c	0.44851005
87	0x3eaaf38e	0.33388942
88	0x3e1d28cf	0.15347598
89	0x3dc65e5f	0.096859686
90	0x3e8ece8a	0.27891952
91	0x3e8863b1	0.26638559
92	0x3e915f39	0.28392962
93	0xbd365d1d	-0.044522393
94	0x3eb20469	0.3476899
95	0x3e8cc1da	0.27491647
96	0x3eea83ff	0.4580383
97	0x3ec6c00a	0.3881839
98	0x3e906ecc	0.2820953
99	0x3e361c18	0.17784154
100	0x3eb2d0e4	0.34924996
101	0x3e6ebefa	0.2331504
102	0x3ed395bf	0.41325185
103	0x3e1252d4	0.14289409
104	0x3de6baf7	0.112661295
105	0x3ecd19d2	0.40058762
106	0x3e835908	0.25653863
107	0x3dcb8e0d	0.099392034
108	0x3e7496f3	0.23885708
109	0x3ed0296c	0.40656602
110	0x3ed2ee1f	0.41197297
111	0x3dcdfa90	0.10057557
112	0x3eb07969	0.3446763
113	0x3f140de1	0.5783368
114	0x3f143f62	0.57909214
115	0x3ed4e5e1	0.41581634
116	0x3eef1a9b	0.46699986
117	0x3eff66e9	0.49883202
118	0x3f2399a3	0.63906306
119	0x3ef5cc1d	0.4800729
120	0x3e87113f	0.26380345
121	0x3e246f40	0.16058064
122	0x3e7822ef	0.24232076
123	0x3ec3bd0c	0.3823017
124	0x3e8cad46	0.27475947
125	0x3ced250e	0.028948333
126	0x3ea53385	0.3226587
127	0x3ec56f95	0.38561693
128	0x3af84a73	0.0018943086
129	0x3e593af8	0.21213901
130	0x3dce64f1	0.10077847
131	0x3e55f23f	0.20893191
132	0x3def7037	0.11691325
133	0x3e11b34a	0.1422855
134	0x3e12686f	0.14297651
135	0x3e141755	0.14462025
136	0x3d82275a	0.06355162
137	0x3dd53ba3	0.104117654
138	0x3daaf323	0.08347156
139	0x3e1046fd	0.1408958
140	0x3df0d767	0.11759835
141	0x3d4352be	0.04768633
142	0x3da85ac8	0.0822044
143	0x3e20830e	0.15674993
144	0x3debe96f	0.11519133
145	0x3eba7c05	0.36422744
146	0x3e925e24	0.2858745
147	0x3e04847a	0.12941161
148	0x3e47b2a3	0.19501738
149	0x3eb11dc9	0.34593037
150	0x3eb9a00a	0.36254913
151	0x3daeb5b6	0.08530752
152	0xbd4979ff	-0.04918861
153	0x3dce44ee	0.10071741
154	0x3d548481	0.051884178
155	0x3b7836a5	0.0037874368
156	0x3ca4c325	0.020112583
157	0x3dadbe57	0.0848357
158	0x3de6ef61	0.11276127
159	0x3dc90343	0.09815075
160	0xbb69b05a	-0.0035658092
161	0x3eabcba9	0.33553818
162	0x3e1ae131	0.15124966
163	0x3e8afb27	0.2714474
164	0x3e029a33	0.12754135
165	0x3e57bfc4	0.21069247
166	0x3e98a99f	0.2981691
167	0x3e03b1e2	0.12860826
168	0x3bdfe0ef	0.006832234
169	0x3da27034	0.07931557
170	0x3d0756ab	0.033041637
171	0x3e12bc0c	0.14329547
172	0x3e3b9fa3	0.18322615
173	0x3cedc683	0.029025322
174	0x3dec1f03	0.115293525
175	0x3e409454	0.18806583
176	0x3e6dc578	0.2321986
177	0x3f15d50d	0.58528215
178	0x3ec359d8	0.38154483
179	0x3e7c7a24	0.24655968
180	0x3e4a468a	0.19753471
181	0x3f04955c	0.51790404
182	0x3f03dcb7	0.5150866
183	0x3e73fcca	0.238269
184	0x3bf29ef2	0.0074042017
185	0x3d79ed30	0.061017215
186	0x3d0fb5fb	0.03508566
187	0x3dab7e22	0.08373667
188	0x3e07c372	0.1325815
189	0x3c076e50	0.008266047
190	0x3e623b15	0.2209285
191	0x3e424bcf	0.18974231
192	0xbd8db41b	-0.06919118
193	0xbda0cc91	-0.07851518
194	0xbdaf9188	-0.0857268
195	0xbdb14de7	-0.08657437
196	0xbdac41f2	-0.084110156
197	0xbdaf06f4	-0.08546248
198	0xbda5224e	-0.08063184
199	0xbd8ab089	-0.06771953
200	0xbdbc7c11	-0.09203351
201	0xbdd7f521	-0.105448015
202	0xbde013b2	-0.109412566
203	0xbddd87cf	-0.10816919
204	0xbde1bb83	-0.11022093
205	0xbddfa768	-0.10920602
206	0xbdcfc657	-0.10145252
207	0xbdadbe33	-0.08483543
208	0xbdc3e1a0	-0.09564519
209	0xbddb3340	-0.107031345
210	0xbddf78f0	-0.10911739
211	0xbdddb8b2	-0.108262435
212	0xbddf0bc0	-0.10890913
213	0xbde197a6	-0.11015253
214	0xbdd804d3	-0.10547795
215	0xbdbfcf89	-0.09365756
216	0xbdcde0ac	-0.100526184
217	0xbdd80197	-0.10547178
218	0xbdea9d8f	-0.11455833
219	0xbdec1389	-0.115271635
220	0xbdecc577	-0.11561101
221	0xbdeacbdd	-0.11464665
222	0xbde94cd5	-0.11391608
223	0xbdce1766	-0.10063057
224	0xbdb704f2	-0.0893649
225	0xbdc80a13	-0.097675465
226	0xbdd732b8	-0.10507721
227	0xbde3e7a2	-0.11128165
228	0xbde7c37b	-0.11316582
229	0xbde5e44f	-0.11225187
230	0xbdd4323f	-0.10361146
231	0xbdb745c3	-0.08948853
232	0xbd8b5a98	-0.06804389
233	0xbda1391d	-0.078722216
234	0xbdad06a8	-0.08448535
235	0xbdb67fc7	-0.0891109
236	0xbdb85e27	-0.09002333
237	0xbdb99883	-0.090622924
238	0xbda1b274	-0.07895365
239	0xbd8d77b3	-0.069075964
240	0xbd91a96d	-0.071123935
241	0xbda0986d	-0.07841573
242	0xbdb2de04	-0.08733752
243	0xbdb2b70a	-0.08726318
244	0xbdaccc92	-0.08437456
245	0xbdaa3625	-0.083111085
246	0xbda25ff7	-0.0792846
247	0xbd90f985	-0.07078842
248	0xbd831025	-0.06399564
249	0xbd935afc	-0.07195088
250	0xbda535e8	-0.080669224
251	0xbda6b6eb	-0.081403576
252	0xbd97a1ec	-0.07403931
253	0xbd9a7911	-0.07542623
254	0xbd964ea8	-0.07339221
255	0xbd92b8c7	-0.0716415

decoder.4.bias f4 [3]
0	0x3e8d803d	0.276369
1	0x3e0a7ac2	0.13523391
2	0xbd05aa81	-0.03263331
